Model/output_dir/1DCNN_0728_no_lr.pt (torch_old, 847600 bytes, 6 tensors)

conv.weight f4 [32, 1, 1, 71]
000000 1c 96 96 38 d1 ae 9f 3b 58 f9 a3 3d bb f4 72 bd
       7.1805174e-05 0.0048731347 0.08006543 -0.059315424
000010 93 45 60 3d 24 fb 22 3d 5a 5c d0 3d c9 e9 0a bd
       0.05475385 0.039790288 0.10173865 -0.03391436
000020 8e a3 3d 3e 66 e6 da bd 03 13 f0 3c 13 8c f7 3c
       0.18519422 -0.10688476 0.02930594 0.03021816
000030 52 95 f2 3d 47 31 35 be 56 7b ab 3c 58 c0 22 3e
       0.11844887 -0.17694579 0.020932835 0.15893686
000040 76 88 61 3e 18 70 07 be 2c a3 22 3e f5 5f 37 be
       0.22024712 -0.13226354 0.15882558 -0.17907698
000050 08 d9 eb bd 4b 03 44 bd af 22 06 be 86 e3 b9 3d
       -0.11516005 -0.047854703 -0.13099168 0.090766
000060 2d 75 ba bd a6 01 c3 bc 25 6c 66 3d e7 ac ee 3d
       -0.09104381 -0.023804497 0.05625548 0.11654072
000070 71 17 df 3d 32 f2 fa bd 8e 50 d9 3d 81 94 0b 3e
       0.10893143 -0.12253226 0.10611068 0.13630868
000080 31 b2 01 3c 77 82 02 bd f8 1f d2 3d 71 c1 12 3e
       0.007916019 -0.031862702 0.10260004 0.14331605
000090 b5 15 ae bd c2 e6 e1 bd 61 b5 c5 3d a5 52 2c be
       -0.08500234 -0.11030342 0.09653736 -0.16828401
0000a0 42 3e 26 be b2 b5 01 be 7c ac 75 bd 03 09 ad bd
       -0.16234687 -0.12666968 -0.059978947 -0.084489845
0000b0 86 1a 8a 3d 60 21 8c 3c 15 9c 83 3d e0 0b 0b be
       0.0674334 0.017105758 0.06426255 -0.13578749
0000c0 93 3d 86 bd ce 8c c8 3c 45 ef 45 3d 24 61 ae 3d
       -0.06554713 0.024481203 0.04832389 0.08514622
0000d0 68 70 c7 3c 67 5c 04 bd eb 15 99 3d d1 61 e9 3d
       0.024345592 -0.032314684 0.07474884 0.1139561
0000e0 ee 3e 2a 3c 46 45 0d bd 3e 76 2c 3d 9b c0 22 3e
       0.01039098 -0.034489892 0.042104952 0.15893786
0000f0 20 53 3b be 41 1a 60 bd b9 88 96 3d 9e 6a bb bc
       -0.18293428 -0.054712538 0.073502965 -0.022877987
000100 a9 58 69 bb 6c a7 af 3d 64 0f 0e be b6 85 f0 bd
       -0.0035605824 0.08576855 -0.13873059 -0.11744253
000110 95 0c 91 3d bb 43 cc 3d 77 1c 73 3d d0 93 68 bd
       0.07082478 0.09973856 0.059353318 -0.05678159
000120 77 0e 64 bd 4a 3b 3e bd d2 22 7a 3d 4c 6c 3d bd
       -0.055677857 -0.04644326 0.061068363 -0.046245858
000130 cf 61 92 3d e3 9f 1e 3d 82 40 00 3e 9a 47 f7 bd
       0.07147562 0.0387267 0.12524608 -0.12074204
000140 44 a7 03 be 8a 65 05 bc d9 fc d1 3c 7e ec db 3c
       -0.12856776 -0.008141885 0.025633262 0.026846167
000150 4d 3f 3f bc 79 1c a7 bc 46 cc 0e be 47 a1 14 bd
       -0.011672807 -0.020399319 -0.13945112 -0.03628662
000160 f4 98 d9 bd bc 5d 87 bc f5 da 2d be 3a 43 89 3d
       -0.106248766 -0.016524188 -0.16978057 0.067022756
000170 4b 50 90 bd 87 d9 8b bd 75 3d 69 bb 64 b8 cc 3c
       -0.07046565 -0.068285994 -0.003558961 0.024990268
000180 96 ac e5 3d 89 41 4d bd b4 2b 5e 3d 3f ec a9 bc
       0.11214559 -0.050111327 0.054240897 -0.020742534
000190 7d f8 8e 3d 5c 08 0c 3e 90 16 da 3d 61 48 93 3d
       0.06980989 0.13675064 0.10648835 0.071915396
0001a0 a9 2d d7 3d 39 a6 14 3e 18 99 65 bc e6 e7 f9 bb
       0.10506756 0.14516534 -0.014013551 -0.0076265214
0001b0 0b ec c1 3d 3f f1 85 bc 4e 80 86 3d 38 a9 d9 3d
       0.0946885 -0.016350387 0.06567441 0.10627979
0001c0 51 aa 4d 3e 1b e0 92 3d 08 fc 08 be 71 83 f2 bd
       0.20084502 0.07171651 -0.13377392 -0.11841477
0001d0 e9 0c 9e 3b 4b fb e2 bc a7 cd 9a 3d 8b c6 da bc
       0.0048233164 -0.027707716 0.07558756 -0.026706
0001e0 d0 7b 37 bd 8d 7a 88 3d 37 c5 05 3e c9 1b 58 bd
       -0.04479581 0.06664 0.13063513 -0.052760873
0001f0 ac c2 aa bb 9c 5a 16 be 57 92 0b be 45 68 ea 3d
       -0.005211195 -0.14683002 -0.13630043 0.11445669
000200 c0 41 a5 3d 71 f9 48 3d 88 f9 98 bd c5 f4 02 bd
       0.080691814 0.04906601 -0.07469469 -0.03197171
000210 6f 0f 07 bc f5 15 18 be 4d ef eb 3d 21 67 65 3d
       -0.008243426 -0.14852126 0.115202524 0.056006555
000220 16 0e f1 3c 3b bd ed 3d 94 8d 85 bd 64 ce 0f be
       0.029425662 0.116083585 -0.065211445 -0.14043576
000230 f3 33 00 3d 0b 30 d4 3c 8d 6f 35 3e d0 b6 7c 3d
       0.031299543 0.025901815 0.17718334 0.06169778
000240 2a f6 70 3d be d3 b1 bd 93 e9 09 be 16 06 36 3e
       0.05882851 -0.08682965 -0.13468008 0.17775759
000250 32 5e 32 3c c4 43 ac 3c a7 aa 1b 3e 75 76 91 3c
       0.010886716 0.021028407 0.15201817 0.01775668
000260 62 0a 24 3e 3f b1 63 bd 1f 4e 3a 3d 13 36 6b be
       0.16019586 -0.055588957 0.04548466 -0.22969846
000270 a1 0e 9e bc 6a 8e ab ba 52 79 1c 3e ed ab 3d 3b
       -0.019294085 -0.0013088707 0.15280655 0.0028941587
000280 02 3a 29 3a 87 e4 da bd 87 af e6 3d 20 f1 1a 3d
       0.0006455482 -0.106881194 0.11263948 0.03782761
000290 96 31 86 bd 2d ab 02 3e 82 78 10 3e f1 20 a7 bd
       -0.065524265 0.12760611 0.1410847 -0.0816058
0002a0 fd 7e 36 3b 16 13 81 3b 6f ca 26 3d 48 fc d1 bd
       0.0027846687 0.003939043 0.0407204 -0.10253197
0002b0 9f b2 1d bd d0 ce 05 3e 85 41 32 3e 92 11 00 3e
       -0.038500424 0.13067174 0.17407806 0.12506703
0002c0 c8 14 b8 bc b8 dd b8 bc 5b ae 08 bd d8 40 3b 3e
       -0.022470847 -0.022566661 -0.033369403 0.18286455
0002d0 bf 20 14 be 14 91 08 be f2 9f e8 bd 10 88 80 bd
       -0.14465617 -0.13336593 -0.11358632 -0.06275952
0002e0 e3 81 28 3d a1 bf f2 bd 3f d7 54 bd 31 b0 a2 bd
       0.041139495 -0.118529566 -0.051963087 -0.07943762
0002f0 3b 4c 10 be e4 f5 1d be 46 a0 f4 3d 6f 09 67 3d
       -0.1409158 -0.15425831 0.11944632 0.05640548
000300 fe 9f 11 3e dc df 79 bd ed 42 6d bd 60 83 d8 3c
       0.14221188 -0.061004505 -0.057925154 0.026429832
000310 35 01 18 be d1 a8 ec 3d 3b 33 0f 3e ba 4b 1c 3d
       -0.1484421 0.11555637 0.13984387 0.038158156
000320 da ab 3b 3d de b1 8d bd eb 89 6c bc c6 aa 1a 3e
       0.045818187 -0.06918691 -0.014437179 0.15104207
000330 d9 37 8a 3d da 3d 30 be 64 de bf 3d e4 2f 51 bd
       0.06748933 -0.17211094 0.093685895 -0.051071063
000340 f0 b7 14 be 2b c9 c1 3c e9 da 20 3c 7c dc 81 bd
       -0.14523292 0.023655495 0.009817817 -0.06340882
000350 6b 1c ad bd 29 67 f1 bd 3c c4 da 3d ce 34 23 3e
       -0.08452686 -0.11787254 0.1068196 0.15938112
000360 a9 ff c9 3d e7 fa 83 bd 72 f6 52 bd 73 ca 24 3d
       0.098632164 -0.0644434 -0.05150456 0.040232133
000370 e9 c7 8b bd 77 b2 48 be 34 a3 06 be bb d9 8f bc
       -0.06825239 -0.19599329 -0.13148195 -0.017559877
000380 6d 76 26 be f8 e7 be 3d 78 1a 48 bc b4 4d 06 be
       -0.16256113 0.09321588 -0.012213342 -0.13115579
000390 b8 b7 ba 3d a5 6f 89 bc 5e b8 4f 3c a9 91 ef bd
       0.09117073 -0.01677687 0.012678234 -0.11697704
0003a0 90 80 6b 3e 18 e7 3e bd 79 d0 12 3e cb 5b aa 3d
       0.22998261 -0.046607107 0.14337339 0.08318289
0003b0 b8 da fa bd a0 88 b9 bc 10 0a 65 be 0e 10 ae bc
       -0.122487485 -0.022648156 -0.2236712 -0.02124789
0003c0 33 dc 0b be a3 e8 8a bd 93 6f 18 3d e5 da 5c 3d
       -0.13658218 -0.06782653 0.03721578 0.05391969
0003d0 c3 35 89 bd c5 63 c8 3d 7c fb 32 bd 6e e8 1b be
       -0.06699707 0.097846545 -0.043696865 -0.15225384
0003e0 61 13 45 bd e5 5c e6 bd cc 62 e0 bd 11 33 a3 3c
       -0.048114184 -0.11248187 -0.10956344 0.019921811
0003f0 7d 35 b5 3c d1 b0 91 3d 51 79 17 3e 35 cf cd 3d
       0.022120232 0.07113803 0.14792372 0.10049287

conv.bias f4 [32]
000000 df 94 79 bd 68 22 b5 bd d8 eb e1 bb 6d c4 8f bd
       -0.06093299 -0.08844453 -0.00689457 -0.07019887
000010 96 05 14 bd 73 25 d7 3d ff a6 a4 3d 5c 3b 20 bb
       -0.03613814 0.1050519 0.080396645 -0.0024449443
000020 6d 6d 0b 3e c2 ae c5 bd 20 f5 a7 3d db 89 46 3d
       0.13615961 -0.09652473 0.08201051 0.048471313
000030 1f d9 b6 bd 6f 0d cf 3d 5d 2b 8d 3d 13 80 9a bd
       -0.08928131 0.10109984 0.068930365 -0.075439595
000040 9b 96 1f bc 60 a1 aa 3b ee 22 84 3d 8e e1 cc 3d
       -0.009740497 0.0052072257 0.06451975 0.10003959
000050 4b 3e f4 3c 26 cb 9f 3d 7e a3 34 bd c7 26 95 3c
       0.02981486 0.07802419 -0.04410123 0.018206967
000060 ee 81 54 3c 3b b5 3c 3d ed d4 a3 3d 9c 3f d4 bc
       0.012970431 0.046071272 0.07999597 -0.025909238
000070 7f 63 e7 3d c5 85 58 bd c9 c0 f0 3d b4 ca b4 bd
       0.11298274 -0.052861948 0.11755521 -0.08827725

hidden1.weight f4 [128, 1600]
000000 a5 d2 99 bc b7 68 08 3c 51 d9 4f 3c b8 c6 4d bc
       -0.018777201 0.008325747 0.01268609 -0.012559585
000010 50 1e e4 bc e4 09 f5 bb 57 e8 1e bc f4 5b be b9
       -0.027846485 -0.0074779857 -0.009698949 -0.00036308134
000020 53 49 7a ba c9 78 69 3b 96 2c e2 bc 13 b0 43 3c
       -0.00095476693 0.0035624972 -0.02760915 0.011943835
000030 aa 34 74 3b ca 23 8a 3a ed f0 b0 bb d4 da d0 bb
       0.0037262836 0.001053923 -0.0053998143 -0.0063737426
000040 28 91 04 3c 7e e3 e0 bb 0c a2 f4 bb c6 18 a3 39
       0.008091249 -0.0068630567 -0.0074656066 0.0003110824
000050 47 eb a3 bc d3 59 09 3c e1 52 8e 3c 5c bb fc bc
       -0.02000965 0.008383232 0.017373504 -0.030851059
000060 8a 17 e8 bc 01 a2 a7 bc ac ca 5b 3c 8c a3 a6 bb
       -0.028331537 -0.020462992 0.01341502 -0.0050854143
000070 26 9a ac bc c7 a6 34 bc d4 12 77 3c 40 03 20 bc
       -0.021069597 -0.011026091 0.015080173 -0.0097664
000080 85 d0 4d 3c 3b 47 a6 bc 4d ca 05 bc f6 76 8b 3b
       0.012561922 -0.020297637 -0.008165908 0.0042561246
000090 90 f4 06 bc df fe 7a 3b cf f0 60 3c c2 61 c5 bc
       -0.008237019 0.0038298888 0.013729288 -0.024094466
0000a0 72 b3 da bc 0a 30 10 bc c5 9d 2e ba 97 24 24 3a
       -0.026696894 -0.008800516 -0.0006661083 0.0006261556
0000b0 95 f6 71 3c 7d 55 a5 bc 03 0d 67 bc 2c b3 f1 bc
       0.014768262 -0.020182366 -0.014102223 -0.029504381
0000c0 2b 0c fd 3b cb de 3c bc 5d c4 01 3c 6a de 3e 3c
       0.007722398 -0.011527727 0.007920352 0.011649707
0000d0 7f 12 40 3b f7 28 3d bc eb 41 89 bc 4a b5 93 3c
       0.00293079 -0.011545411 -0.016755065 0.018030781
0000e0 93 f2 ba bc 51 64 da bc c4 c8 69 3c 35 a3 8d 39
       -0.022820747 -0.026659163 0.014269058 0.00027015214
0000f0 68 4f 38 bc e4 06 c9 3b 25 22 dd bb 0b 43 20 3b
       -0.011249401 0.0061348546 -0.006748455 0.0024454023
000100 19 55 e3 bc 6c 4d a0 3b c9 9c 0a bc d6 77 e9 bb
       -0.027750539 0.004892042 -0.008460232 -0.0071248813
000110 74 13 e3 bb ac 0e 50 bb 3c cc 1d bc da 56 24 3c
       -0.006929809 -0.0031747026 -0.009631213 0.010030473
000120 04 8b c4 bc ad c2 5b 3c 1a 40 80 bc 4a 4e 03 3c
       -0.023992069 0.013413114 -0.015655566 0.008014271
000130 4f 42 b3 bc 15 b5 0a 3c 44 3d 65 bc 97 d0 c5 bc
       -0.021882204 0.008466025 -0.013991658 -0.024147315
000140 77 22 84 bc 54 e1 8c bc 86 b2 04 3c c7 b3 ca bc
       -0.016129715 -0.017197289 0.008099204 -0.024743928
000150 f7 a0 b8 3b 79 06 98 bb 16 32 6e 3c 9f 66 05 3c
       0.005634423 -0.0046394435 0.014538309 0.008142143
000160 a3 f5 46 3c f0 cd 84 3b b8 bd 91 3a ab 6f 6c 3b
       0.012143525 0.00405287 0.0011119163 0.0036077301
000170 d5 87 eb bc cd 3d 92 bc a5 81 f1 bc 0d 6c bf 3b
       -0.028751293 -0.017851735 -0.029480765 0.005841738
000180 14 8c 9b 3c 29 40 0d bb e6 17 6b bb 5f 1b c0 bb
       0.018987693 -0.0021553135 -0.00358724 -0.005862638
000190 c2 e4 8c bc fa fe 7c 3c 6b e8 7e ba 18 a1 83 bc
       -0.017198924 0.0154416505 -0.0009723964 -0.016068026
0001a0 28 a0 d5 bb bf 74 2b bb aa d1 2d bc d9 f4 84 3b
       -0.0065193363 -0.0026162115 -0.01060907 0.0040575084
0001b0 8e a1 2d 3a a2 91 c6 bc 50 05 cc ba ea 74 9a bc
       0.00066235 -0.024239365 -0.0015565548 -0.018854577
0001c0 57 aa b3 bc c1 aa 42 bc 17 03 e4 ba ca 51 24 bc
       -0.02193181 -0.011881531 -0.001739594 -0.010029266
0001d0 e6 39 ae bc 88 2f 8a 3b a7 fd 7f bc 05 ca 1d 3c
       -0.021267843 0.004217092 -0.01562444 0.009630685
0001e0 8e 8d dd bb 6c 55 e9 bb f0 b8 0b 3b 4c 65 01 bc
       -0.0067612594 -0.007120779 0.0021319948 -0.007897686
0001f0 7f c8 e7 bc c0 46 cb b9 45 ee 95 3b 0f 52 b9 3c
       -0.028293846 -0.0003877189 0.004575523 0.022622136
000200 6e 3a 9f bc 96 11 81 bc 67 13 91 bc ba 42 c1 3b
       -0.019437041 -0.015755456 -0.017709447 0.005897847
000210 aa 83 22 3c a6 be 09 3a 83 34 cf 3c 33 80 90 3c
       0.0099190865 0.0005254544 0.025293594 0.017639255
000220 7c e9 9b bc c7 21 71 3c c3 ac e5 3c 43 07 a3 3b
       -0.019032232 0.014717526 0.02803648 0.004975231
000230 aa 81 e4 bc 51 76 9e 3c c7 12 f7 bc fb c5 ba bc
       -0.02789386 0.019343527 -0.03016032 -0.022799483
000240 18 3c 9e 3b f5 e9 48 39 02 06 b4 ba 15 f6 b1 3c
       0.004828941 0.00019160642 -0.0013734701 0.021723786
000250 ee 1e a2 bc 7d 04 ec 3b d7 28 56 ba b4 95 e5 bc
       -0.019790139 0.0072026835 -0.0008169538 -0.028025486
000260 19 f4 d6 bc 62 39 e0 bc 14 1f 21 3c 2e ba e9 3b
       -0.026239442 -0.027371112 0.00983407 0.00713279
000270 48 53 f6 bb 97 82 b0 3c 37 c9 44 3c eb 79 11 3c
       -0.007517252 0.021546645 0.012010864 0.008879165
000280 45 bd 5b bc 8e 1d f6 bc 19 78 a8 bc 24 a4 6b bc
       -0.013411825 -0.03004339 -0.02056508 -0.014382396
000290 4f 3d a1 bc 3d 5d c0 3c 05 30 42 3b 58 43 bd bc
       -0.019682555 0.02348196 0.0029630673 -0.023103401
0002a0 fe c6 a6 bc c4 50 8e bc 93 a2 0e 3c 35 2f 9b bc
       -0.020358559 -0.017372496 0.008705753 -0.018943409
0002b0 c3 ad 9b bb 2b a0 4c 3c 1d a8 d9 bc c2 a5 a3 3c
       -0.0047509386 0.012489359 -0.02656942 0.0199765
0002c0 1f 07 0f 3c 90 64 a4 3b 3b d6 63 bc ef de 75 3c
       0.008729725 0.005016871 -0.013906057 0.015006765
0002d0 6b c8 46 bc 44 e7 83 3c f4 e0 ed bc fe 8b 65 3c
       -0.012132744 0.016101487 -0.02903793 0.0140104275
0002e0 4a 27 2a 3c ea 31 6e bc 90 ba 40 3c 80 9d fa bc
       0.010385344 -0.014538268 0.01176323 -0.03059268
0002f0 a9 a7 f0 3a 81 41 8b 3b 7d 8f bd bc 0e da aa 3b
       0.0018360513 0.004249752 -0.02313971 0.0052139824
000300 e1 57 87 bc af 40 d7 bc 10 db 1a bc 2e 76 52 bb
       -0.016521396 -0.02627596 -0.009451643 -0.0032113898
000310 b8 14 15 3a ab 0a ab 3c 6a e9 dd bc b0 95 7c bc
       0.0005686986 0.02087911 -0.02708884 -0.015416548
000320 db 70 22 3a 5b 17 c4 bc 6a b7 75 bb a8 6b 71 3a
       0.00061966263 -0.023936918 -0.0037493357 0.00092094624
000330 5d 0f 07 ba a8 f4 03 3c 43 fb 52 bc 76 0b a0 bc
       -0.00051521306 0.008053936 -0.012877288 -0.019536715
000340 75 f3 2e bc 89 1a 44 3c 94 43 be bc 5a d0 0a bc
       -0.010678162 0.011969217 -0.023225583 -0.008472526
000350 25 81 d6 bc 32 3c c2 bb 68 70 bc 3b 23 0a c9 bc
       -0.026184628 -0.005927586 0.0057507046 -0.024540966
000360 f1 f2 ee bb 9b 68 7f 3c d6 fe d4 bb c8 20 0f 3c
       -0.0072921445 0.015588905 -0.0065001054 0.008735843
000370 40 7a d6 bc 80 dc ac ba c5 10 91 3c fc c5 ba bc
       -0.02618134 -0.0013188273 0.017708192 -0.022799484
000380 cc e9 ba bc a0 10 a6 3c 45 87 a2 bb f2 03 1e 3c
       -0.022816561 0.0202716 -0.004959973 0.009644495
000390 97 5f 5e 3c 4b 2d b2 bb 9a 98 05 bc 80 c4 5c bb
       0.013572595 -0.0054375282 -0.008154059 -0.003368646
0003a0 3f 59 ce bb 15 b5 90 bc 8d 3a e7 ba 40 60 46 bc
       -0.00629726 -0.017664472 -0.0017641351 -0.012107909
0003b0 b0 3b 99 bb c0 ce e7 bc 0a 9e 4f bc 77 dd fa 3b
       -0.0046763048 -0.028296828 -0.012671957 0.007655795
0003c0 64 16 b9 b9 62 dc 00 3a 45 02 91 3c fb 82 8f bc
       -0.00035302632 0.0004915652 0.017701278 -0.017518511
0003d0 02 df e5 bc d3 37 a5 3b b9 f5 7f bc 6c b5 81 3c
       -0.02806044 0.005042055 -0.01562255 0.015833579
0003e0 e4 8d e2 bc bf 79 56 bc 70 86 b9 bb fe e2 35 bc
       -0.02765555 -0.01309055 -0.005661778 -0.011101482
0003f0 6a ec 65 bc cc b7 7f 3c 68 e8 8c 3c 26 58 65 3c
       -0.014033416 0.015607785 0.017200664 0.013998067

hidden1.bias f4 [128]
000000 b1 fd 85 bc 46 0b b3 bc 4e 2f c7 bb cb 0a 8a bc
       -0.016356321 -0.021855962 -0.006078637 -0.01685085
000010 e6 df 79 bc c6 9a c2 3c f3 ef 03 bc 91 92 4f 3c
       -0.015251135 0.023755442 -0.008052814 0.0126692215
000020 ef 8b 24 3c 56 3a a0 3b 4f 3a 9d bc 15 af 7b bc
       0.010043128 0.0048897667 -0.019192843 -0.015361567
000030 56 0c 0f 3c a8 8a 62 bc 85 94 e7 3b a3 6a a4 3c
       0.008730968 -0.013827004 0.0070672655 0.02007038
000040 1b 04 13 bb bc 3c 7c 3c 87 24 6c 3c 22 3a a8 bc
       -0.0022432867 0.01539534 0.014413006 -0.020535532
000050 11 91 a0 3c 61 d9 b8 3b 02 d8 eb 3c a0 dc 4d bc
       0.019600423 0.005641148 0.028789524 -0.012564808
000060 f2 82 b0 3a 02 31 81 3c 0c df 3d bd 51 8d f4 bc
       0.0013466759 0.015770439 -0.046355292 -0.029852541
000070 17 a1 ce bc 59 8b 96 bc e3 50 61 bc 56 22 b8 3c
       -0.025223298 -0.018376993 -0.013752195 0.02247731
000080 88 86 2e bc bf 53 6b 3c e9 7a 61 bc e4 8b 0d 3c
       -0.010652192 0.014363228 -0.013762214 0.00863931
000090 e0 48 20 3c 73 e3 ab bc e2 8d 87 bc 78 86 9a 3c
       0.009783 -0.02098248 -0.016547147 0.018862948
0000a0 d1 ed 3e 3c 92 01 d3 3a ac 38 ae bc ba b0 3c bc
       0.01165338 0.001609849 -0.021267258 -0.011516744
0000b0 96 2a 5b 3b f1 9c 48 3c 44 e3 83 3c 39 0a f0 3b
       0.0033442131 0.012244449 0.01609958 0.0073254374
0000c0 8e 62 f0 bb 57 1c 99 3c 6b 8e c9 3b ad b4 0e bb
       -0.0073359674 0.018690271 0.0061510107 -0.0021775172
0000d0 b0 15 82 3c e8 88 09 bc 87 12 65 3c b7 ad 81 3c
       0.015879482 -0.008394457 0.013981468 0.015829904
0000e0 be b9 da b9 f0 4c bb bc 01 ec b8 bc 43 d4 43 bc
       -0.0004171859 -0.022863835 -0.022573473 -0.011952463
0000f0 0e a1 00 bc 4c 88 c5 3c 30 a7 e8 3c 95 dc a4 3c
       -0.007850898 0.024112843 0.028400034 0.020124713
000100 2d 96 8c 3c 2e 72 82 bc 28 f0 a6 ba 94 8b 8c bc
       0.017161453 -0.015923586 -0.0012736367 -0.0171564
000110 9d 7f b1 3b ae ad 4c bb 99 83 c5 3c 68 b9 c2 bb
       0.005416824 -0.003123145 0.024110602 -0.0059425123
000120 3f 57 a1 bb 6e 35 ee 3b d5 39 01 3b 6c 4b 95 3c
       -0.0049237306 0.007269553 0.0019718308 0.01822444
000130 c7 e6 a0 3c 5b 2a ae 3c 8d 32 4c bc 8c 7d 2f 3c
       0.019641293 0.021260431 -0.012463224 0.010711085
000140 b8 1d 0d bb 4f f2 6c 3c 07 ed 9d 3c 3d 21 b4 3c
       -0.0021532606 0.014462068 0.019278063 0.021988505
000150 76 7d 6c bc b4 42 bc 3b bc 05 08 bb d4 58 c4 bb
       -0.014434209 0.0057452563 -0.002075537 -0.0059920345
000160 00 a5 90 bc 75 e3 9f bc 1e 3d 07 37 f2 61 3f bc
       -0.017656803 -0.01951764 8.060857e-06 -0.011681067
000170 f5 d6 10 3c 75 43 11 bc 94 47 f3 bb 3a 74 12 3c
       0.008840312 -0.008866181 -0.0074243043 0.008938843
000180 4c 63 80 bc 9c f9 a9 bc e2 34 90 3c 33 0f 92 3c
       -0.015672348 -0.020748906 0.017603341 0.017829513
000190 c4 02 93 3c fb 06 2d bc c1 ba 34 bc 40 f3 ab bc
       0.017945655 -0.010560746 -0.011030854 -0.020990014
0001a0 a9 83 8d 3c bb 23 a2 bc 46 de 18 bc 93 52 bc bc
       0.017274695 -0.019792428 -0.009330338 -0.022988593
0001b0 26 59 30 bc 38 52 a1 bc 83 ed 01 3c 46 b5 dd bc
       -0.010763442 -0.019692525 0.007930162 -0.027063977
0001c0 9a c1 1a 3c 0c 85 87 3c 4d dd ac bc bc 5b e4 bb
       0.009445572 0.016542934 -0.021101618 -0.0069689434
0001d0 23 0a 0d bc 1c 2e e4 3c b4 97 f7 bc 08 57 74 bc
       -0.008608374 0.027854018 -0.030223705 -0.014913328
0001e0 fe 3c d1 3a 34 b3 2e 3c a5 cf b3 3a 86 20 f5 3c
       0.0015963612 0.010662843 0.0013718499 0.029922735
0001f0 c8 21 1e 3c af a4 be 3a 29 81 7b 3c b3 58 d4 ba
       0.009651609 0.0014544929 0.015350618 -0.0016200751

hidden2.weight f4 [34, 128]
000000 0f 88 49 3c 27 4d b6 bb bb 3c 16 bd c8 70 fe bd
       0.012300505 -0.0055633965 -0.03667901 -0.12423855
000010 dc 15 41 bd 51 ec 4c bc f0 ec 83 3d d8 b6 e0 3c
       -0.047139987 -0.012507514 0.064416766 0.027430937
000020 a6 a0 a1 3d e4 8b 71 3d 7a a2 05 bd 2f 95 77 3d
       0.078919694 0.0589713 -0.032625653 0.060445007
000030 fc bb 18 3d 95 0f aa 3c 73 fd 90 3d 06 75 c8 bd
       0.03728865 0.020759383 0.070795916 -0.097879454
000040 cd 05 8e bd 47 38 27 3c 2c 0d cd 3d fd bd 83 3d
       -0.069347 0.010206289 0.10012278 0.06432722
000050 a4 6f a9 3d c1 3c 2c 39 56 b1 6c 3d 8d 86 dc bc
       0.08273247 0.00016425831 0.05778631 -0.026919628
000060 1c 16 9b 38 3e 4e 3f 3d f7 cc a5 3d 52 19 8f 3d
       7.395094e-05 0.046705477 0.080957346 0.06987251
000070 c9 ee 8a 3d fb f6 4a 3d c4 de 31 bd 0e c4 40 bc
       0.06783826 0.049551945 -0.043425336 -0.011765493
000080 8b 09 91 3d d7 be 97 bd 30 79 5b 3d eb 4d b0 3c
       0.07081898 -0.07409447 0.05358237 0.02152153
000090 99 be b2 3c 32 4d f8 3d d9 ca a9 bd 72 7f 58 3d
       0.0218194 0.12124099 -0.08290643 0.052855916
0000a0 10 1a 91 bd 8e 96 3c 3d fb d2 c7 bd c7 2a 6d 3d
       -0.07085049 0.046042018 -0.09757038 0.057902124
0000b0 56 eb 6d 3d d1 7c 61 bd 34 fb df bd 42 9a b1 3c
       0.058085762 -0.055050675 -0.10936585 0.021680001
0000c0 e4 7b 56 3d 73 e2 9a bd 8f be 8f 3d 7d ae 9d bd
       0.052364245 -0.07562723 0.07018768 -0.076992966
0000d0 9d 8b b0 3d 27 32 cc 3b f0 3a fd bc 56 01 6e bd
       0.08620379 0.0062315646 -0.030911893 -0.058106743
0000e0 53 57 dd 3c da c4 be bd 80 e4 73 bd 79 5b 96 3d
       0.027019178 -0.0931489 -0.059544086 0.07341666
0000f0 f5 0a 90 3d 9c c2 dc 3d b7 3a c4 bd f5 8e ae 3d
       0.0703334 0.10779306 -0.095815115 0.08523361
000100 02 90 1d bd 41 57 a0 bd 6f 0d 99 3d 37 45 86 bd
       -0.038467415 -0.07829142 0.074732654 -0.065561704
000110 f5 2d c6 3d 54 21 70 bd 38 08 ad 3d 75 73 69 3c
       0.09676734 -0.058625534 0.08448833 0.0142487185
000120 da 8c 44 bc f4 66 0f bc af d6 91 bd ae 8c a3 bd
       -0.011996472 -0.008752573 -0.07121026 -0.07985817
000130 77 a2 9d 3d da 53 a0 3b 06 87 84 3d 73 20 86 bd
       0.07697003 0.0048928084 0.06471066 -0.06549158
000140 0f ff 0d 3c 08 50 a9 3d b4 76 d0 3c ff fa d3 bd
       0.008666768 0.08267218 0.025447227 -0.10350608
000150 27 56 db 3b c1 72 61 bd 9c 7e 9b bd a8 8d 04 3c
       0.00669362 -0.05504108 -0.07592508 0.008090414
000160 2c 3d 9c bd d4 34 5d bc b7 50 44 bd ce ab 79 3d
       -0.07628855 -0.013501365 -0.04792854 0.06095486
000170 04 b3 43 3d a7 37 73 bb fe 5b b8 3c c2 a4 13 3d
       0.047778144 -0.0037112029 0.022504803 0.036045797
000180 f6 f1 86 bd 3c 61 a5 bd 99 3a 9a bd 4d 43 9c 3d
       -0.06589119 -0.080751866 -0.07530708 0.07630024
000190 38 03 79 3d 57 8b 09 bb 03 94 ac 3d 6d e6 5e 3d
       0.060794085 -0.0020987594 0.084266685 0.05441897
0001a0 3e de 33 3d 69 7f b0 bc 71 cc bb 3d f4 c1 6c bc
       0.04391312 -0.021545129 0.091698535 -0.014450539
0001b0 cb 8a 5d bd 97 25 0c be 4b 76 43 3d 35 79 72 bc
       -0.05408744 -0.13686214 0.047720235 -0.014799406
0001c0 ce c8 ce 3d da a6 ec bc 44 85 ec bc 08 54 f4 bd
       0.10096894 -0.028888155 -0.02887214 -0.1193009
0001d0 d9 d0 85 bc c3 19 b5 bd 95 45 bd 3c 07 d7 0c bd
       -0.016334938 -0.08842804 0.023104468 -0.034384754
0001e0 ea 16 95 3c c4 b4 25 bc 67 d0 98 bd 01 9d d2 3b
       0.018199403 -0.010113899 -0.074616246 0.0064274077
0001f0 f4 4e ca 3d c5 21 29 3b f4 d3 ac bb ab a8 b8 3d
       0.0987834 0.0025807482 -0.00527429 0.09016546
000200 78 7f 8e 3d 87 fa 67 bc f2 6d 11 3a f0 d8 a4 bd
       0.069579065 -0.0141588515 0.0005547694 -0.0804919
000210 93 cf 1d 3d 45 62 df bd c1 b4 31 3d 96 d1 0d be
       0.038528036 -0.10907415 0.04338527 -0.13849482
000220 ac c3 ab bd da ef a8 3d bb 1d 30 bd 64 9a 44 bd
       -0.08386931 0.08248873 -0.042997103 -0.0479988
000230 fc 8b af bd d5 76 c1 bd 63 17 c5 3d f9 75 44 3c
       -0.08571622 -0.094464935 0.09623601 0.0119910175
000240 a1 46 7b bd 88 fc 8b bd fc 07 0d bd 74 43 15 3c
       -0.061346654 -0.06835276 -0.034431443 0.00911032
000250 87 9e 6b 3d c2 58 a5 3d 3e 6d 2b bd 85 58 0a 3b
       0.05752423 0.0807357 -0.04185223 0.002110989
000260 db c6 ac 3c a7 30 84 bd 91 21 75 3d 88 69 26 bd
       0.021090915 -0.06454592 0.059846465 -0.040627986
000270 36 68 67 3c 1e 9e c5 3d 36 ce c1 3d 1d f1 07 be
       0.014123967 0.09649299 0.0946316 -0.13275571
000280 75 e8 f7 bd 86 5a c4 bd d7 04 13 3c 47 0b f8 bb
       -0.121048845 -0.095875785 0.008973322 -0.0075697037
000290 c0 c2 3c 3c e2 31 ff 3c 4a 6c 60 3d 5c 1f 91 bc
       0.011521041 0.031151716 0.054790772 -0.017715149
0002a0 bb 5d 2a 3d 5d 11 8a 3c 8f 3c bc 3d ab d9 e5 bc
       0.041593295 0.016853983 0.09191238 -0.028057894
0002b0 3f 88 32 bd de 81 65 3d 3b 01 d6 3d 6f 39 8a 3d
       -0.043586966 0.056032054 0.104494534 0.06749236
0002c0 05 b1 a4 3d 33 87 60 3d 60 72 e9 3d cb c1 00 3c
       0.08041576 0.054816436 0.113987684 0.007858704
0002d0 9f b4 af bc e7 75 9a bd d6 31 9d 3c 8d fc 06 bd
       -0.021448432 -0.07542019 0.019188803 -0.032955695
0002e0 1f fb e1 3d db 6c c9 bc 58 22 d8 bc 04 e6 3e bd
       0.11034226 -0.02458804 -0.026383564 -0.04660608
0002f0 0c d8 80 bd 22 2b 14 3d dd bf 46 3d b7 05 b0 ba
       -0.06291208 0.036173947 0.04852282 -0.0013429438
000300 0b b2 50 3d 11 09 74 3c 65 54 cc bd c3 eb 19 3c
       0.050951045 0.01489474 -0.099770345 0.009394589
000310 04 1e aa 3d e9 64 45 bd 31 e7 03 be 7b 3d 0b bd
       0.08306506 -0.04819194 -0.12881161 -0.03399418
000320 0d fe 21 bd 58 89 7e bd 9c e4 f0 3c 1d a5 24 3c
       -0.039548922 -0.0621427 0.029405884 0.010049132
000330 ba bd 4a 3d 4a a8 98 3d e7 25 d8 3b e1 98 34 3d
       0.049497344 0.074539736 0.006596315 0.04409111
000340 cd f6 57 bd f8 5d 2c 3d c6 3c 9b b9 12 44 f6 bd
       -0.052725602 0.042081803 -0.00029609184 -0.12024702
000350 ec a5 a2 3d fc cf 56 3c 3e a3 8d bd 5c ea 53 bd
       0.07941803 0.013111111 -0.069159016 -0.051737174
000360 cc d6 e0 bc ae e8 f2 3d 69 53 c3 3d b3 4d 3d 3d
       -0.027446173 0.118607864 0.095373936 0.046216678
000370 0c 5a 50 bd fc a3 24 bd f7 15 d4 bc 24 57 b4 3c
       -0.050867125 -0.04019545 -0.02588938 0.022014208
000380 95 fe bf bd 71 cc e5 3d 79 25 c5 3d df 89 13 3d
       -0.093747295 0.11220635 0.09626288 0.036020156
000390 6d 56 7f 3d b4 89 69 bb 5e cf b4 3d 76 8e 40 bd
       0.06233828 -0.0035635056 0.08828615 -0.04701086
0003a0 9f 97 a4 bc 09 27 f3 3a 51 d8 cc 3c 74 89 2d 3d
       -0.02009183 0.0018551062 0.025005491 0.042367414
0003b0 5c db eb bc 29 f8 9f bd cc ef 8a bc 09 f4 bd bd
       -0.028791122 -0.07811005 -0.016960047 -0.09275062
0003c0 81 f4 01 3d a0 05 18 bc 45 a2 76 bd 6a e9 a4 bb
       0.031727318 -0.009278685 -0.060213346 -0.005032708
0003d0 13 9a fa 3c 2f a5 a1 bd 5f d6 81 3d d7 9e 62 3d
       0.030591046 -0.078928344 0.06339716 0.055327263
0003e0 0c dc 28 bd aa 0e 8e bd 08 ac 10 bd 94 80 5b 3d
       -0.041225478 -0.06936391 -0.03532031 0.05358942
0003f0 97 86 26 3d c2 50 5f bd f6 57 90 bd dc 15 a7 3d
       0.0406557 -0.054520376 -0.07048027 0.08158466

hidden2.bias f4 [34]
000000 e3 b9 48 3c c0 6d 4f bc 2a d8 84 3d 46 42 97 3d
       0.01225135 -0.012660444 0.064865425 0.073856875
000010 9c 99 36 3d 9b 6c c8 39 0b 9f e9 3b 04 4c 15 ba
       0.044580087 0.0003822789 0.007129555 -0.0005695226
000020 02 5d 9c bd 69 d3 db bb 9b 89 bf bd 66 a3 76 3c
       -0.07634927 -0.0067085517 -0.09352418 0.015053606
000030 4a 45 89 bc 06 93 91 3d 62 1b a7 bd fe d9 a2 bc
       -0.016756672 0.071081206 -0.0815952 -0.019879337
000040 f6 d7 53 bd 11 24 d1 3c 55 e7 81 bd 65 86 80 3d
       -0.05171963 0.025529893 -0.06342951 0.06275634
000050 b1 61 5e bd ed b4 07 bd 4d 04 8d bb 77 d5 b0 3c
       -0.054292385 -0.03313153 -0.004303491 0.021586163
000060 d6 de f7 3b 4b 16 9d 3d 8b a9 37 3d e7 6b d5 bc
       0.007564406 0.07670268 0.044839423 -0.026052428
000070 bd 13 26 3d f8 77 ff bc ce f8 7f 3d 71 d4 4d 3d
       0.040546168 -0.031185135 0.062493138 0.050251428
000080 1c e8 ad bd 13 83 c2 3b
       -0.08491537 0.0059360354
