Model/output_dir/1DCNN_0728_no_lr_4.pt (torch_old, 847600 bytes, 6 tensors)

conv.weight f4 [32, 1, 1, 71]
0.08372675 -0.114901505 -0.08261734 0.16420002 0.10357166 0.098718256 0.050938096 -0.14947487
-0.057971068 -0.025460573 0.063238256 0.0095855165 -0.0010275886 0.014473672 -0.051750284 -0.13719395
-0.014140524 -0.06980921 -0.13110457 0.007539437 -0.12447274 0.11370555 -0.14511694 0.12183027
0.19701548 0.13560483 0.05660875 -0.11486829 -0.124728434 0.05022405 -0.0006110045 0.15841699
0.009758414 0.07874075 -0.06860916 -0.20097473 0.14642732 0.024717996 0.14396806 -0.048591197
0.18382058 -0.07947414 0.062589586 -0.071282394 0.14410023 0.057680327 -0.20719631 -0.024693022
-0.01819467 -0.0119147105 0.105612494 -0.07265963 -0.18514799 0.091144405 0.11885858 0.11981618
-0.15056442 0.041664977 0.24866833 0.086147904 0.054854147 -0.016837098 0.05915665 -0.1412262
-0.0681685 0.011491652 -0.12286522 0.08491845 0.13113756 -0.148832 -0.0718001 -0.10179204
0.1854367 0.100466974 0.0010793685 -0.07239939 0.18316655 -0.07191034 -0.17274144 0.02053479
-0.09971527 -0.055198148 -0.10473842 -0.18252933 0.099180475 -0.05235263 0.14334852 0.009321603
-0.07207673 -0.06663128 0.11639347 -0.043844987 -0.033381317 0.18451059 -0.17044404 0.07003414
-0.039856102 0.14945011 0.06960689 0.13641936 0.03861156 -0.083880484 0.019869061 -0.08273622
-0.06300798 0.09950787 0.013351508 -0.007999533 -0.06641961 0.16062483 0.12253256 -0.14733328
-0.025354292 0.0031720821 -0.15640093 0.16362374 -0.10501891 0.23309985 -0.18869375 0.09042612
-0.105457395 0.10073058 0.10282201 -0.02398246 -0.14670268 -0.0046068123 -0.009788034 -0.04760642
-0.09828413 0.23652679 -0.12959692 0.026199495 0.10217891 0.08294262 0.09405457 0.0775806
-0.009922732 0.087033115 0.10006238 0.04687933 0.10440055 -0.14243215 -0.026250709 -0.0692966
0.00203997 -0.07860499 -0.10286877 0.15986425 -0.10346465 0.18333934 0.21107763 0.19020684
0.111718066 -0.21280698 -0.0002914316 0.05796381 0.057043433 -0.028385503 0.12319039 0.015315238
0.14193232 -0.17545949 -0.056426983 0.08289193 -0.071372956 0.11168596 -0.14095403 -0.140897
0.14871176 0.14356966 -0.06096321 0.049004216 0.011323433 0.07607289 0.07108716 -0.09034118
0.056517173 -0.04571831 -0.09978942 0.08980501 0.11892134 -0.053952526 -0.02465628 0.13012588
-0.12251864 -0.011538037 -0.0050151916 -0.1125549 -0.06322304 0.06579494 -0.05822548 -0.13486429
0.00028553975 0.13321072 0.1455321 -0.068931796 -0.103507996 -0.021848872 0.046459015 -0.12267405
0.10974299 0.026618285 0.11882929 -0.08611418 -0.05361465 0.029627087 -0.120959386 -0.017305022
-0.017162547 0.0991274 0.10602097 -0.08190346 0.048000455 -0.008098874 -0.070688546 0.15816405
-0.19695047 0.06785913 0.12735848 -0.011720348 0.0075545507 0.104127504 0.15311229 -0.032201696
-0.018124068 0.09653301 0.118403256 -0.18801646 0.1272089 0.06861217 0.10356734 0.037866004
-0.07881754 0.06601849 -0.12612744 0.1316263 0.05579057 -0.1402744 -0.084868 -0.088704936
-0.085384324 -0.04920829 0.04191402 0.108299434 0.010701056 -0.07399116 -0.10321123 -0.015118243
0.15309027 -0.05254404 -0.020573735 0.014952229 0.100368164 0.027364912 -0.11898833 -0.23190618
00000000: ee78 ab3d 7b51 ebbd 4833 a9bd 0d24 283e
00000010: 611d d43d cc2c ca3d 77a4 503d f10f 19be
00000020: 1273 6dbd b192 d0bc 0f83 813d 920c 1d3c
00000030: 27b0 86ba fb22 6d3c 1bf8 53bd 927c 0cbe
00000040: a8ad 67bc 22f8 8ebd 4740 06be 620d f73b
00000050: 90eb febd 75de e83d 8999 14be 2682 f93d
00000060: 6dbe 493e fedb 0a3e 94de 673d 1140 ebbd
00000070: 9f71 ffbd bcb7 4d3d d12b 20ba 1038 223e
00000080: c1e1 1f3c d542 a13d f682 8cbd 52cc 4dbe
00000090: 0bf1 153e 657d ca3c 5d6c 133e 9007 47bd
000000a0: 763b 3c3e 57c3 a2bd f82e 803d 81fc 91bd
000000b0: 038f 133e 3542 6c3d 452b 54be 0549 cabc
000000c0: fd0c 95bc eb35 43bc 5d4b d83d 92ce 94bd
000000d0: 6f97 3dbe eba9 ba3d 216c f33d 2f62 f53d
000000e0: 8f2d 1abe e5a8 2a3d e9a2 7e3e 506e b03d
000000f0: beae 603d f4ed 89bc 3e4e 723d 9a9d 10be
00000100: ed9b 8bbd 7b47 3c3c c3a0 fbbd b9e9 ad3d
00000110: ed48 063e 6a67 18be ee0b 93bd 5878 d0bd
00000120: 1ee3 3d3e a1c1 cd3d 9979 8d3a 2246 94bd
00000130: 0390 3b3e ba45 93bd 22e3 30be 9338 a83c
00000140: 8537 ccbd 7417 62bd 1981 d6bd f8e8 3abe
00000150: 221f cb3d b66f 56bd f4c9 123e a3b9 183c
00000160: f79c 93bd fb75 88bd b35f ee3d cd96 33bd
00000170: d9ba 08bd 58f0 3c3e e288 2ebe 0f6e 8f3d
00000180: 2740 23bd 7309 193e 0f8e 8e3d 84b1 0b3e
00000190: 2827 1e3d 88c9 abbd 71c4 a23c 9b71 a9bd
000001a0: 540a 81bd c8ca cb3d 49c0 5a3c 7910 03bc
000001b0: 0107 88bd d67a 243e 5af2 fa3d 89de 16be
000001c0: ceb3 cfbc b5e2 4f3b 9127 20be fb8c 273e
000001d0: 2714 d7bd bab1 6e3e ef38 41be 5431 b93d
000001e0: 0cfa d7bd d64b ce3d 5994 d23d dd76 c4bc
000001f0: 3a39 16be bef4 96bb fd5d 20bc f3fe 42bd
00000200: 3149 c9bd 1434 723e 0eb5 04be 53a0 d63c
00000210: 2d43 d13d d2dd a93d af9f c03d 94e2 9e3d
00000220: f492 22bc 6b3e b23d 81ed cc3d 8a04 403d
00000230: f5cf d53d bcd9 11be ba0b d7bc 60eb 8dbd
00000240: 04b1 053b a7fb a0bd ddac d2bd 74b3 233e
00000250: 46e5 d3bd 4fbd 3b3e bc24 583e 95c5 423e
00000260: 71cc e43d 13ea 59be 4acb 98b9 766b 6d3d
00000270: 60a6 693d b788 e8bc 3e4b fc3d c4ec 7a3c
00000280: b556 113e a7ab 33be fb1f 67bd 3fc3 a93d
00000290: fc2b 92bd 9cbb e43d 4156 10be 4e47 10be
000002a0: e547 183e ed03 133e 8fb4 79bd a5b8 483d
000002b0: ec85 393c 1acc 9b3d 2596 913d cc04 b9bd
000002c0: 8d7e 673d 1f43 3bbd 655e ccbd b0eb b73d
000002d0: 088d f33d 53fd 5cbd f8fb c9bc b83f 053e
000002e0: 0deb fabd 090a 3dbc 7a56 a4bb 2f83 e6bd
000002f0: 157b 81bd 7fbf 863d d77d 6ebd dd19 0abe
00000300: 7fb4 9539 6468 083e 5e06 153e 1d2c 8dbd
00000310: 00fc d3bd 68fc b2bc cf4b 3e3d 883c fbbd
00000320: efc0 e03d 970e da3c c55c f33d a25c b0bd
00000330: 099b 5bbd 81b4 f23c 8eb9 f7bd 43c3 8dbc
00000340: 7898 8cbc 4e03 cb3d 8621 d93d 00bd a7bd
00000350: 209c 443d 24b1 04bc 28c5 90bd c2f5 213e
00000360: 62ad 49be baf9 8a3d 436a 023e b406 40bc
00000370: 2a8c f73b cd40 d53d 78c9 1c3e ede5 03bd
00000380: ed78 94bc 19b3 c53d 687d f23d 6387 40be
00000390: 0d43 023e 8a84 8c3d 1d1b d43d 6219 1b3d
000003a0: 176b a1bd b434 873d 8d27 01be 0bc9 063e
000003b0: a784 643d 18a4 0fbe 46cf adbd efaa b5bd
000003c0: fadd aebd a28e 49bd 09ae 2b3d 18cc dd3d
000003d0: 7b53 2f3c ad88 97bd 6960 d3bd 82b2 77bc
000003e0: b2c3 1c3e 6b38 57bd 408a a8bc 32fa 743c
000003f0: d38d cd3d 612c e03c 27b0 f3bd d078 6dbe

conv.bias f4 [32]
-0.019419292 -0.101280764 -0.01758191 0.02642839 0.10213782 0.025996815 -0.02061205 0.025653996
-0.029900718 0.09863237 0.039710738 0.11578566 0.026234277 -0.037925247 -0.05909736 -0.09989169
-0.041481208 -0.10952513 0.02136681 -0.04197519 -0.08561787 0.03771228 -0.07156083 -0.03475177
0.086764954 0.031751886 0.045168 -0.077438526 0.0052503487 -0.03764665 -0.006683998 -0.08630654
00000000: 3515 9fbc 4a6c cfbd f007 90bc 5a80 d83c
00000010: a22d d13d 46f7 d43c 9ada a8bc 5428 d23c
00000020: 5af2 f4bc c5ff c93d baa7 223d 0821 ed3d
00000030: 44e9 d63c 8157 1bbd 1310 72bd 0494 ccbd
00000040: 33e8 29bd b64e e0bd 7309 af3c 2dee 2bbd
00000050: 6c58 afbd 3178 1a3d 7c8e 92bd df57 0ebd
00000060: d3b1 b13d 440e 023d 1502 393d 1798 9ebd
00000070: 1e0b ac3b 6033 1abd 7005 dbbb 7cc1 b0bd

hidden1.weight f4 [128, 1600]
-0.053258054 0.017906636 -0.001066478 -0.021944363 0.0018150369 0.010141262 0.0005273005 0.04780523
0.052152082 -0.022607015 0.019847512 -0.016992848 0.047983926 -0.01102318 -0.015898287 0.028122103
0.008667453 -0.008208607 0.010013414 0.025220407 0.0074559986 -0.044295147 0.006860942 -0.0036052433
0.0031648623 0.00014091207 -0.006989569 0.017671356 -0.022852356 0.01923062 0.009836453 -0.072430305
-0.0023145212 0.042961646 -0.017502537 0.03328094 0.031781368 0.007399141 -0.033192948 0.025639258
-0.033270925 -0.01969778 -0.0052666003 -0.04013222 0.06075996 0.048506416 0.01083526 -0.07771259
-0.05736009 -0.02617094 -0.008986127 0.024333233 0.04090948 0.017304478 -0.033013992 -0.020755654
0.002912303 -0.052203603 0.019896176 0.03627189 -0.02804154 0.036682215 -0.009046396 -0.04447906
-0.01625648 0.019179817 0.03938478 -0.010074562 0.024212666 0.039589494 0.032295577 -0.0054064593
-0.048013747 -0.0986625 -0.012638238 0.0014555881 -0.15644132 0.012679522 -0.034242015 -0.014527754
-0.020156996 0.015463869 0.04435342 -0.0059316005 0.0105639715 -0.018083824 -0.008580704 -0.016890557
0.03255113 0.030636434 -0.0045873136 0.019989569 -0.016869273 0.03033154 -0.023374885 0.0008306889
-0.038611278 0.029142657 0.05370985 0.016478835 -0.0144319525 -0.08605479 0.025112728 0.0138895875
0.0029509475 0.018665401 0.016995883 -0.03808935 0.007444607 0.0030538605 -0.012498716 0.020010337
0.00048201982 0.03559944 0.110103264 0.019986862 0.019036468 0.009985889 0.01565874 -0.066905096
-0.042126134 -0.056250926 -0.09848708 -0.0071344217 0.002577548 -0.008183792 0.00416021 0.013150111
0.029144218 -0.025678368 -0.10539791 0.06836194 0.021476742 0.031336237 0.08401079 0.0027464863
0.031967066 -0.03745 0.022212973 -0.074183516 0.061930183 0.023338256 0.002224175 0.025731541
0.06573665 -0.02328956 -0.01277812 0.017319271 0.011592402 0.08111291 0.0031789 -0.032300167
0.009479356 0.0040987586 0.024872078 -0.016716992 -0.0015591999 -0.016271075 -0.013143578 -0.015146762
2.3983212e-05 0.020500498 0.06573477 0.009748313 0.0047799367 0.015971351 0.01683226 -0.030226037
0.0045135566 -0.032649796 0.02419479 0.039664738 0.0030557418 0.07127988 -0.0073206523 0.006280546
0.017053658 0.0011667104 0.04618099 -0.022553213 -0.016360305 0.01870458 -0.03416374 0.0077109532
0.011235767 0.013790079 0.018864552 -0.022241546 -0.0038303987 -0.027978733 0.008461176 -0.027033672
0.073871 0.04137901 -0.048820104 -0.00811583 -0.05408045 0.062762156 0.089187086 0.0151237575
0.087967634 0.0027475294 0.020059312 -0.009754343 -0.0039292667 0.005542488 -0.011397479 -0.002388498
0.006241833 0.0037802756 -0.015357769 -0.044632662 0.009075868 -0.059418414 -0.03696 -0.0034438693
0.067368075 0.029154843 0.0068733674 0.01657184 -0.022974275 0.07988554 0.080983184 -0.046456814
0.013882686 0.02930827 -0.022978472 0.0392445 0.045353934 0.010723363 -0.019030428 0.041951016
0.033739373 -0.043949533 0.012373866 0.022560326 -0.065754265 0.049489647 0.0023302035 -0.029650554
-0.0091454955 -0.04813191 -0.05153586 -0.004857586 -0.043554354 -0.035339687 -0.004599646 -0.008975671
-0.012779054 -0.030102465 0.04348915 0.021619534 -0.0026918547 -0.01801296 0.03619584 0.0028156464
00000000: 1e25 5abd f0b0 923c 10c9 8bba aac4 b3bc
00000010: 88e6 ed3a 8927 263c 8a3a 0a3a 6bcf 433d
00000020: 6c9d 553d 5932 b9bc 4097 a23c 9634 8bbc
00000030: cb8a 443d 919a 34bc 203d 82bc 5360 e63c
00000040: ef01 0e3c 657d 06bc 4d0f 243c 079b ce3c
00000050: 7351 f43b d46e 35bd c1d1 e03b f245 6cbb
00000060: 9469 4f3b ccc1 1339 c108 e5bb 85c3 903c
00000070: dd34 bbbc 8889 9d3c 1329 213c 5756 94bd
00000080: 39af 17bb 8df8 2f3d 7b61 8fbc 9851 083d
00000090: 2e2d 023d 7e74 f23b 54f5 07bd 6c09 d23c
000000a0: 1847 08bd 3d5d a1bc 7293 acbb af61 24bd
000000b0: 70df 783d aaae 463d 6086 313c c727 9fbd
000000c0: 6af2 6abd 7064 d6bc 8c3a 13bc 7d56 c73c
000000d0: b390 273d 1fc2 8d3c ae39 07bd c307 aabc
000000e0: 56dc 3e3b 72d3 55bd 4efd a23c d591 143d
000000f0: 5fb7 e5bc 1740 163d 5637 14bc ad2f 36bd
00000100: 4f2c 85bc fe1e 9d3c ef51 213d c70f 25bc
00000110: a459 c63c 9828 223d 5e48 043d ab28 b1bb
00000120: 10aa 44bd 910f cabd 9d10 4fbc 6fc9 be3a
00000130: 2732 20be c5bd 4f3c 5b41 0cbd d105 6ebc
00000140: 4920 a5bc 2b5c 7d3c efab 353d df5d c2bb
00000150: 8214 2d3c 8724 94bc 1596 0cbc 115e 8abc
00000160: 5554 053d 42f9 fa3c 2d51 96bb 2ac1 a33c
00000170: 6e31 8abc da79 f83c b07c bfbc 97c2 593a
00000180: dc26 1ebd 95bc ee3c dcfe 5b3d 9ffe 863c
00000190: ff73 6cbc 7e3d b0bd 35b9 cd3c 2791 633c
000001a0: af64 413b 2fe8 983c f33a 8b3c 9403 1cbd
000001b0: e4f1 f33b 4723 483b 6ac7 4cbc b8ec a33c
000001c0: 9bb7 fc39 b8d0 113d d27d e13d 7dbb a33c
000001d0: 5ef2 9b3c db9b 233c c246 803c 8a05 89bd
000001e0: 748c 2cbd 5f67 66bd 98b3 c9bd dec7 e9bb
000001f0: 14ec 283b 5015 06bc 5f52 883b 9073 573c
00000200: dbbf ee3c 715b d2bc dcda d7bd 5801 8c3d
00000210: feef af3c 6d5a 003d d90d ac3d 65fe 333b
00000220: e6ef 023d 2c65 19bd fbf7 b53c 87ed 97bd
00000230: 81aa 7d3d df2f bf3c 77c3 113b f4ca d23c
00000240: f0a0 863d bfc9 bebc 525b 51bc 25e1 8d3c
00000250: 0fee 3d3c 861e a63d 1855 503b 2e4d 04bd
00000260: 4d4f 1b3c e14e 863b 87c0 cb3c 13f2 88bc
00000270: 115e ccba eb4a 85bc 2958 57bc 202a 78bc
00000280: 8e2f c937 a9f0 a73c f39f 863d 63b7 1f3c
00000290: 04a1 9c3b 5ad6 823c cfe3 893c 989c f7bc
000002a0: 75e6 933b cbbb 05bd 2734 c63c 7e77 223d
000002b0: d742 483b 30fb 913d 15e2 efbb 0acd cd3b
000002c0: 1db4 8b3c 4eec 983a 4728 3d3d 84c1 b8bc
000002d0: 0c06 86bc 593a 993c 47ef 0bbd 2aac fc3b
000002e0: 3916 383c c9ef 613c d589 9a3c e733 b6bc
000002f0: 6d07 7bbb a833 e5bc bfa0 0a3c b875 ddbc
00000300: ae49 973d 097d 293d 97f7 47bd 42f8 04bc
00000310: 7683 5dbd 7289 803d b8a7 b63d a3c9 773c
00000320: 6028 b43d e50f 343b 6d53 a43c aed0 1fbc
00000330: 14c1 80bb c29d b53b 7ebc 3abc 5988 1cbb
00000340: 4a88 cc3b 80be 773b 279f 7bbc bdd0 36bd
00000350: f3b2 143c b960 73bd 5e63 17bd 8ab2 61bb
00000360: 46f8 893d 23d6 ee3c fc39 e13b abc1 873c
00000370: 8c34 bcbc 089b a33d 83da a53d 8049 3ebd
00000380: 3574 633c e617 f03c 593d bcbc d7be 203d
00000390: 0cc5 393d 0bb1 2f3c b3e5 9bbc d4d4 2b3d
000003a0: 4c32 0a3d 6d04 34bd c1bb 4a3c 6fd0 b83c
000003b0: 2caa 86bd a8b5 4a3d 54b6 183b b8e5 f2bc
000003c0: fdd6 15bc f725 45bd 4417 53bd 632c 9fbb
000003d0: 0d66 32bd 59c0 10bd a1b8 96bb b10e 13bc
000003e0: 3d5f 51bc 7299 f6bc ae21 323d 731b b13c
000003f0: d469 30bb ea8f 93bc 1742 143d b586 383b

hidden1.bias f4 [128]
-0.00811345 -0.011243463 0.006799554 -0.02554551 -0.011923241 -0.008141769 -0.02731353 -0.00017198356
-0.013752512 0.013003639 -0.015529032 0.02814196 -0.01701165 -0.025947995 0.013376649 -0.024440948
0.020380454 -0.018594883 0.011497329 -0.031196384 0.02301136 0.017813053 0.0007935904 0.00946283
0.008835058 0.0119109675 -0.017368259 -0.0024345815 -0.0050425036 0.01085723 0.016469263 -0.0040661134
0.017304081 -0.038015384 -0.0041596624 -0.020358164 -0.013195527 0.023837473 0.011828196 -0.0075651486
0.015117485 0.007920401 -0.005846824 0.009682134 -0.023823842 -0.030703716 0.011154368 0.019604675
-0.009887018 -0.01762495 -0.0033285 0.00219531 -0.017558372 0.028576816 -0.012987194 0.013929889
0.0015434877 -0.025607383 0.010362829 0.014875505 -0.010349192 -0.015357091 0.0017911512 0.00999401
-0.026816813 -0.015505926 0.0015262107 -0.007142649 0.021284683 0.0028517104 -0.038339734 0.00570823
-0.020025386 -0.0071947114 -0.008070615 0.0076100184 0.0057332674 -0.017225655 -0.009111369 0.020237507
-0.019807614 0.016773485 0.009622777 0.009836551 -0.0012353703 0.018940248 0.029096683 0.004482821
-0.0053682863 0.017018748 0.009657186 0.013007581 -0.011693299 0.015955165 0.026120983 -0.010279259
-0.0058717253 0.01608461 0.01863771 0.00827623 0.008659633 -0.008563794 -0.0014157648 -0.030270195
0.020973539 0.009811136 -0.031858478 -0.0117383255 0.0021995918 -0.02768508 0.011960416 0.009489702
-0.01768671 0.009018628 -0.027623935 0.00011525848 -0.010312394 -0.022382984 -0.024859237 0.017877692
-0.002627038 -0.014909851 0.0034723612 0.024975184 -0.0039544487 0.009508715 0.0043588 0.008619644
00000000: 47ee 04bc 8036 38bc cbce de3b d144 d1bc
00000010: b359 43bc 0e65 05bc a0c0 dfbc 7c56 34b9
00000020: 3752 61bc 370d 553c 7b6d 7ebc f889 e63c
00000030: 045c 8bbc e490 d4bc bb29 5b3c 6238 c8bc
00000040: e9f4 a63c 4c54 98bc 4b5f 3c3c 8f8f ffbc
00000050: 5282 bc3c aeec 913c f308 503a fc09 1b3c
00000060: ebc0 103c 3826 433c e147 8ebc 808d 1fbb
00000070: 963b a5bb 86e2 313c 8cea 863c 083d 85bb
00000080: 4ac1 8d3c 05b6 1bbd c74d 88bb 2ac6 a6bc
00000090: 0d32 58bc ce46 c33c 0dcb 413c 11e5 f7bb
000000a0: 54af 773c 92c4 013c b796 bfbb d0a1 1e3c
000000b0: 382a c3bc 5c86 fbbc cfc0 363c fc99 a03c
000000c0: 29fd 21bc 3362 90bc f722 5abb 31df 0f3b
000000d0: 93d6 8fbc ed19 ea3c 3dc8 54bc 303a 643c
000000e0: da4e ca3a 93c6 d1bc dbc8 293c 64b8 733c
000000f0: a88f 29bc 4f9c 7bbc 10c5 ea3a ebbd 233c
00000100: efae dbbc 910c 7ebc 220b c83a e20c eabb
00000110: 375d ae3c c3e3 3a3b 200a 1dbd 1b0c bb3b
00000120: 470c a4bc 9dc1 ebbb 9d3a 04bc 765d f93b
00000130: 22de bb3b d11c 8dbc da47 15bc 21c9 a53c
00000140: 9443 a2bc 8c68 893c daa8 1d3c 7c29 213c
00000150: 26ec a1ba 9428 9b3c 2b5c ee3c a1e4 923b
00000160: 73e8 afbb e76a 8b3c 2d39 1e3c c01d 553c
00000170: 4095 3fbc 68b4 823c acfb d53c 566a 28bc
00000180: 9a67 c0bb dfc3 833c 1cae 983c 0699 073c
00000190: 22e1 0d3c 284f 0cbc 2f91 b9ba 33f9 f7bc
000001a0: b3d0 ab3c e3be 203c 097e 02bd 1b52 40bc
000001b0: 0727 103b d2cb e2bc 9ff5 433c b27a 1b3c
000001c0: b8e3 90bc dec2 133c 974b e2bc edb6 f138
000001d0: 51f5 28bc 855c b7bc 99a5 cbbc 3d74 923c
000001e0: 622a 2cbb 7348 74bc 8e90 633b c298 cc3c
000001f0: 5294 81bb 71ca 1b3c 44d4 8e3b 6839 0d3c

hidden2.weight f4 [34, 128]
-0.062557966 -0.026728563 -0.029695814 0.043131895 -0.039594606 -0.015851967 -0.03309269 0.06867665
0.008012973 0.0076116505 0.08207999 0.064502195 -0.074228406 -0.046936866 0.0063954475 0.050498843
0.0052006394 -0.089845054 0.05973231 0.023283623 -0.039776538 -0.045980614 -0.057073932 0.0056354636
0.022609087 -0.07974762 0.068200774 -0.045839924 -0.008914991 0.03047348 0.03831476 0.06560842
0.011063673 -0.050677687 -0.0410814 0.07946247 0.02786856 0.042896025 0.06735643 0.02865581
0.02264973 0.010816245 0.0426047 -0.021978267 -0.051564768 0.011265379 0.057540134 0.03467613
0.0058680302 -0.052724097 -0.0440309 -0.09853913 0.07402467 0.0117170205 0.024043886 -0.06968897
-0.060692765 -0.06686732 -0.04359245 -0.020324191 0.039885946 -0.07525884 -0.08345276 0.06951623
0.0402826 -0.05111323 -0.06685217 -0.04946006 -0.04878016 0.020130435 -0.04321526 -0.09922719
-0.02289479 0.080325656 -0.0505682 0.08683911 -0.06797899 -0.091189116 -0.07113625 0.08061422
0.002654476 0.06021692 -0.015724318 -0.10738083 0.06245591 -0.034771908 0.038719464 -0.052547235
0.0027770107 0.045173246 0.043479558 0.084700406 -0.07621028 0.046916407 -0.06409994 0.0022681702
-0.009821514 -0.085896604 -0.060676515 -0.05712437 -0.07227943 0.062756285 0.05782458 0.07766962
-0.029512662 -0.0062435786 0.07078499 -0.028894152 -0.005112109 -0.054764953 -0.055084173 -0.01399202
-0.050752476 -0.07887574 0.038954142 -0.02776568 0.031262256 -0.047725946 0.050568283 -0.044974454
0.01922514 0.0040922198 -0.06537763 0.059965998 -0.065630265 -0.0030453606 0.03716684 -0.0073561165
0.028106006 0.02237241 -0.047382545 0.03199078 0.06294539 -0.0006427192 -0.06698516 0.09932294
0.029120298 -0.0811958 -0.08510433 0.114763014 -0.10257546 -0.049108285 -0.11488392 0.08109167
-0.076222785 -0.038911052 -0.05902914 -0.03206957 -0.07368614 0.015052294 -0.014559708 0.057028323
-0.067016676 0.037034635 0.009778437 -0.11638929 0.007042702 0.055317305 0.01186747 0.04901082
0.10691795 0.028869301 0.07618459 -0.013903608 -0.081890985 -0.105335005 0.045466572 0.050169587
-0.024281751 0.06219285 0.013563155 0.03894098 -0.066435784 0.030774426 0.006146023 0.10915807
-0.1701756 0.07560042 0.032875236 -0.06337284 0.06600596 -0.13336329 0.12890342 -0.015792178
0.054778785 -0.061862193 0.077001326 0.070952676 -0.0017872042 0.053285744 0.053356823 0.0841143
-0.023923999 0.060094863 -0.10463331 -0.048058715 0.07845783 0.022136472 0.0325909 0.047914766
0.080724455 0.076829955 0.047757618 0.031620566 -0.04812604 -0.013005127 -0.020789506 -0.1225901
0.03304188 0.011619266 0.09732729 0.052447945 0.048655424 0.09396524 -0.07993269 0.08062657
-0.008733612 0.10476678 -0.008204815 0.14954735 -0.0087927 0.027274176 0.041610084 0.030502392
0.026187012 0.08553641 0.10381111 0.07932294 -0.045659114 0.0651582 -0.007116848 -0.024686625
0.10139758 0.10038839 0.09011545 0.09690557 -0.095109954 0.0227226 0.10591821 -0.0009997919
0.0060684783 0.08392646 0.084574185 -0.0014134954 0.022766223 -0.14901088 0.069388695 0.050017096
0.016224653 -0.0006659581 -0.09432916 0.094573185 0.011009471 0.0071849064 -0.034091737 -0.05720005
00000000: 641e 80bd dcf5 dabc a344 f3bc 12ab 303d
00000010: f42d 22bd fcdb 81bc 338c 07bd 58a6 8c3d
00000020: d848 033c 276b f93b 8e19 a83d ba19 843d
00000030: 1005 98bd df40 40bd e790 d13b e0d7 4e3d
00000040: 206a aa3b af00 b8bd dea9 743d 4cbd be3c
00000050: b9ec 22bd 2b56 3cbd 5bc6 69bd b2a9 b83b
00000060: b136 b93c b852 a3bd d9ac 8b3d a5c2 3bbd
00000070: 2f10 12bc 85a3 f93c f0ef 1c3d b55d 863d
00000080: 6844 353c 6893 4fbd f844 28bd 38bd a23d
00000090: 9b4c e43c beb3 2f3d 2bf2 893d 97bf ea3c
000000a0: ed8b b93c 9f36 313c 4482 2e3d c40b b4bc
000000b0: 9435 53bd 6d92 383c 34af 6b3d 8f08 0e3d
000000c0: 9b48 c03b 39f5 57bd bf59 34bd e2ce c9bd
000000d0: 3f9a 973d bff8 3f3c aff7 c43c 17b9 8ebd
000000e0: fa98 78bd bcf1 88bd ff8d 32bd eb7e a6bc
000000f0: 725f 233d 4f21 9abd 48e9 aabd 865e 8e3d
00000100: 5eff 243d 1b5c 51bd cae9 88bd a296 4abd
00000110: b4cd 47bd 95e8 a43c 7c02 31bd a037 cbbd
00000120: db8d bbbc c781 a43d 9a20 4fbd b4d8 b13d
00000130: 9238 8bbd 5cc1 babd e2af 91bd 1119 a53d
00000140: b8f6 2d3b 04a6 763d 49d0 80bc 7bea dbbd
00000150: c5d1 7f3d fd6c 0ebd 4d98 1e3d c53b 57bd
00000160: 82fe 353b 9507 393d 9f17 323d 6877 ad3d
00000170: 2314 9cbd 6b2b 403d d446 83bd 95a5 143b
00000180: 6aea 20bc 8fea afbd f087 78bd 3efb 69bd
00000190: 3d07 94bd 5e86 803d 78d9 6c3d 4011 9f3d
000001a0: 8ac4 f1bc ef96 ccbb b9f7 903d 6eb3 ecbc
000001b0: 7a83 a7bb 3751 60bd f19f 61bd c93e 65bc
000001c0: d4e1 4fbd 9b89 a1bd 618e 1f3d da74 e3bc
000001d0: da0c 003d 487c 43bd b020 4f3d 2237 38bd
000001e0: 0a7e 9d3c 0718 863b b5e4 85bd e89e 753d
000001f0: 2969 86bd ac94 47bb 423c 183d 940b f1bb
00000200: 913e e63c 5846 b73c 3314 42bd c408 033d
00000210: 83e9 803d 287c 28ba 842f 89bd d369 cb3d
00000220: b18d ee3c fc49 a6bd 2e4b aebd df08 eb3d
00000230: 1513 d2bd c525 49bd 4348 ebbd 6413 a63d
00000240: b11a 9cbd 3261 1fbd 8ac8 71bd 625b 03bd
00000250: c2e8 96bd e69d 763c d78b 6ebc 8896 693d
00000260: 0a40 89bd a1b1 173d bd35 203c 825d eebd
00000270: 77c6 e63b 6694 623d c76f 423c 92bf 483d
00000280: ccf7 da3d 507f ec3c ab06 9c3d f5cb 63bc
00000290: 76b6 a7bd e1b9 d7bd 283b 3a3d a07e 4d3d
000002a0: 86ea c6bc eebd 7e3d ff37 5e3c 9480 1f3d
000002b0: 7c0f 88bd a61a fc3c 9464 c93b 448e df3d
000002c0: 8342 2ebe 65d4 9a3d 2fa8 063d 9fc9 81bd
000002d0: 222e 873d 6390 08be 42ff 033e 995e 81bc
000002e0: b85f 603d 3663 7dbd dfb2 9d3d a34f 913d
000002f0: 9f40 eaba 2742 5a3d af8c 5a3d 1e44 ac3d
00000300: 43fc c3bc 0826 763d fd49 d6bd 37d9 44bd
00000310: 80ae a03d 8c57 b53c 097e 053d 4642 443d
00000320: dd52 a53d 0659 9d3d 7e9d 433d 9184 013d
00000330: cf1f 45bd 7513 55bc c14e aabc 8510 fbbd
00000340: ec56 073d bc5e 3e3c 8853 c73d a8d3 563d
00000350: e94a 473d d970 c03d c0b3 a3bd 8b1f a53d
00000360: 6c17 0fbc f78f d63d 7d6d 06bc f122 193e
00000370: 420f 10bc 186e df3c 566f 2a3d 27e0 f93c
00000380: 2586 d63c b72d af3d eb9a d43d 1174 a23d
00000390: 0d05 3bbd aa71 853d 7334 e9bb 9b3b cabc
000003a0: 89a9 cf3d 6e98 cd3d 738e b83d 6d76 c63d
000003b0: 02c9 c2bd bf24 ba3c a6eb d83d 730b 83ba
000003c0: 16da c63b a3e1 ab3d 3b35 ad3d 0945 b9ba
000003d0: 3b80 ba3c 4f96 18be a91b 8e3d bade 4c3d
000003e0: 90e9 843c b193 2eba a62f c1bd 96af c13d
000003f0: 1161 343c 5d6f eb3b c7a3 0bbd 9a4a 6abd

hidden2.bias f4 [34]
-0.07775524 -0.0062653953 -0.006060627 -0.035664406 0.04581068 -0.061702598 -0.06597372 -0.07500714
-0.05384183 0.08785896 -0.05625106 0.038000733 -0.083041556 -0.029870536 -0.033449132 0.08132088
0.09275639 0.017420039 0.07400211 -0.022675185 -0.07626806 -0.061591804 0.02636359 -0.007566255
0.10114938 -0.059963815 0.047200624 0.05734712 0.055727076 -0.041488793 -0.0005906721 0.017206784
-0.01391725 -0.028618919
00000000: 243e 9fbd f24d cdbb 3998 c6bb d714 12bd
00000010: fba3 3b3d ddbb 7cbd 3b1d 87bd 589d 99bd
00000020: 4089 5cbd 66ef b33d 8367 66bd a8a6 1b3d
00000030: b111 aabd 0eb3 f4bc f501 09bd 908b a63d
00000040: 10f7 bd3d 78b4 8e3c 6b8e 973d 4fc1 b9bc
00000050: 6e32 9cbd b047 7cbd 75f8 d73c 59ee f7bb
00000060: 6827 cf3d 9e9c 75bd 7155 413d d0e4 6a3d
00000070: 1342 643d 27f0 29bd 55d7 1aba 3ef5 8c3c
00000080: 2d05 64bc 3972 eabc
