Model/output_dir/1DCNN_0728_no_lr_3.pt (torch_old, 847600 bytes, 6 tensors)

conv.weight f4 [32, 1, 1, 71]
-0.08228056 0.16572544 0.19342342 -0.046008404 -0.18177049 0.05624466 -0.016796669 -0.06054266
-0.22996925 -0.007409793 -0.1373387 0.044135682 -1.025261e-05 0.07805694 -0.10611896 -0.008726739
0.04235314 -0.018487073 0.18706706 0.10446864 0.07866226 -0.047446564 0.14476085 -0.06464663
0.022320285 0.047305528 0.006873329 -0.02793681 -0.115371846 0.1894527 0.12635478 -0.06706322
-0.09358242 0.15913722 -0.046135575 -0.18492113 -0.09748211 -0.04835097 -0.09191542 -0.01481304
0.0423351 0.13047849 -0.12872793 0.06581994 -0.22790417 0.040585656 0.027687421 0.0074008186
0.0692918 0.014356622 -0.01089909 -0.10503831 -0.0641447 -0.0101870205 -0.19377518 0.19305962
0.049595736 -0.07772027 -0.040926177 -0.0764901 0.06503918 0.09872072 -0.071688235 0.17710935
0.15553865 0.034454927 0.06484328 -0.020491475 0.19378853 0.121620364 -0.10956723 -0.09936377
-0.17106642 -0.013398398 0.047655694 0.17861713 -0.1254016 -0.053659435 -0.08851387 0.20094955
0.1975867 -0.07721811 -0.12703829 0.15422377 -0.117272004 -0.15517423 0.14913799 0.01094848
-0.26222178 0.10369707 0.07440861 0.028691502 0.06274943 -0.1475483 0.036799654 0.08746785
-0.13471024 -0.1576477 0.075992525 -0.026410768 -0.09944127 -0.032145575 0.030324142 0.27957016
0.06719017 0.14974058 -0.08812385 -0.058609687 0.13883106 0.04118568 -0.10649554 0.078269765
-0.06359827 0.07180383 -0.011185468 0.052540593 0.2518268 -0.21827437 -0.112880506 0.05392442
-0.14009854 0.04800413 -0.015275887 -0.046306115 0.14625779 0.16218907 -0.072148584 0.04372718
0.11956354 -0.14796776 -0.023715997 -0.120872624 -0.09798486 0.11645919 -0.061322853 0.04772549
0.16279753 0.02182165 0.07560231 -0.11128239 0.19281083 0.11037757 0.020619644 -0.047867496
-0.06705725 -0.04723378 0.07655789 0.18617027 -0.02655516 -0.18716645 0.094612785 0.15514646
-0.011702106 -0.13726355 0.16630436 -0.14977257 0.11766103 -0.027540445 -0.06586722 0.056998454
-0.06920577 0.17644542 0.16347116 -0.042439718 -0.14271674 0.022412881 -0.08211746 -0.13887407
-0.12441491 0.0917946 -0.043360244 -0.09434208 0.015525081 0.046756845 0.09684842 0.036642846
-0.007259465 -0.100221336 0.1591137 0.11261605 0.03415321 -0.014275675 0.10907848 0.046479985
0.08823879 0.18683317 -0.12393189 -0.017302187 0.035550784 -0.0023080471 0.08964912 -0.11272085
-0.07472782 -0.10398202 0.028341765 -0.12767744 0.15676446 -0.10831874 0.07543002 -0.06562701
0.054011405 0.08096087 -0.049113564 -0.043724027 -0.24966219 0.05618733 0.04437768 0.08372958
0.035328723 -0.013490936 0.015723433 -0.0769129 0.09791396 -0.12841311 0.030601114 0.16442797
-0.069228575 0.14223132 -0.013959499 -0.10179074 -0.035461664 0.222513 -0.08316195 0.04456704
-0.12133933 0.053016506 -0.14927173 0.010394664 0.12861381 -0.091513686 -0.1327425 -0.07052138
-0.061281193 0.12140382 -0.0961021 0.052405342 0.18069877 0.04428719 -0.08239799 -0.14472951
0.01113962 -0.02150035 0.13795458 -0.008370678 -0.089032836 0.079999335 -0.19641408 0.12190447
-0.12183265 0.018648947 0.012179521 0.079934224 0.14493787 0.18201725 -0.18883961 -0.0118818
00000000: b682 a8bd eeb3 293e ca10 463e 4f73 3cbd
00000010: 0b22 3abe cd60 663d 2b99 89bc 95fb 77bd
00000020: 0f7d 6bbe d9cd f2bb 84a2 0cbe 9ec7 343d
00000030: a002 2cb7 51dc 9f3d e654 d9bd 99fa 0ebc
00000040: 7c7a 2d3d 3472 97bc 828e 3f3e a8f3 d53d
00000050: ae19 a13d 5457 42bd 303c 143e 7465 84bd
00000060: 08d9 b63c 71c3 413d aa39 e13b bddb e4bc
00000070: 1348 ecbd e3ff 413e 2663 013e 7158 89bd
00000080: 24a8 bfbd def4 223e a8f8 3cbd f75b 3dbe
00000090: b3a4 c7bd ab0b 46bd 273e bcbd 65b2 72bc
000000a0: 9267 2d3d 279c 053e 41d1 03be 9bcc 863d
000000b0: b65f 69be 253d 263d bbd0 e23c 9182 f23b
000000c0: dce8 8d3d 0938 6b3c 1992 32bc 531e d7bd
000000d0: 4c5e 83bd 76e7 26bc 006d 46be 6cb1 453e
000000e0: e624 4b3d ce2b 9fbd 35a2 27bd d7a6 9cbd
000000f0: 4333 853d 172e ca3d 48d1 92bd 275c 353e
00000100: 8645 1f3e 9c20 0d3d 8ecc 843d bddd a7bc
00000110: 8070 463e 1914 f93d c964 e0bd 3b7f cbbd
00000120: 092c 2fbe f484 5bbc 9e32 433d 69e7 363e
00000130: 4769 00be ffc9 5bbd c346 b5bd b8c5 4d3e
00000140: 2b54 4a3e 8724 9ebd 5316 02be d6ec 1d3e
00000150: 4e2c f0bd fee5 1ebe a1b7 183e 4161 333c
00000160: ef41 86be 215f d43d 8b63 983d 710a eb3c
00000170: c682 803d e716 17be 3cbb 163d 5822 b33d
00000180: 7bf1 09be 666e 21be f8a1 9b3d 655b d8bc
00000190: dda7 cbbd 14ab 03bd 566a f83c d223 8f3e
000001a0: 009b 893d 9855 193e 477a b4bd b610 70bd
000001b0: bb29 0e3e 51b2 283d 551a dabd e64b a03d
000001c0: cf3f 82bd e30d 933d 4143 37bc ce34 573d
000001d0: 71ef 803e 5183 5fbe e52d e7bd dadf 5c3d
000001e0: fe75 0fbe fb9f 443d b747 7abc 7bab 3dbd
000001f0: 9ac4 153e e414 263e a3c2 93bd 461b 333d
00000200: bbdd f43d dc84 17be 0d48 c2bc 118c f7bd
00000210: 49ac c8bd 2882 ee3d ac2d 7bbd ce7b 433d
00000220: 65b4 263e 51c3 b23c 62d5 9a3d 06e8 e3bd
00000230: 3470 453e a30d e23d 87ea a83c b510 44bd
00000240: 5055 89bd 3578 41bd 62ca 9c3d 6ba3 3e3e
00000250: 358a d9bc 90a8 3fbe 59c4 c13d b7de 1e3e
00000260: 31ba 3fbc d18e 0cbe b14b 2a3e fb5d 19be
00000270: 44f8 f03d 809c e1bc 65e5 86bd 3677 693d
00000280: c1bb 8dbd 1cae 343e fc64 273e 45d5 2dbd
00000290: 5624 12be 389b b73c 332d a8bd 0135 0ebe
000002a0: 3fcd febd cffe bb3d 839a 31bd 6c36 c1bd
000002b0: e95c 7e3c 1b84 3f3d 7758 c63d cf16 163d
000002c0: cee0 edbb d840 cdbd b4ee 223e 3ea3 e63d
000002d0: 3de4 0b3d 85e4 69bc 8a64 df3d cc61 3e3d
000002e0: 8ab6 b43d 3251 3f3e 01d0 fdbd 51bd 8dbc
000002f0: b39d 113d 9b42 17bb f599 b73d 30da e6bd
00000300: e60a 99bd 86f4 d4bd fd2c e83c e0bd 02be
00000310: dd86 203e 37d6 ddbd 0e7b 9a3d 7467 86bd
00000320: 103b 5d3d d0ce a53d 4e2b 49bd f717 33bd
00000330: 72a7 7fbe b024 663d 5fc5 353d 6a7a ab3d
00000340: dab4 103d 1609 5dbc 6ece 803c 8384 9dbd
00000350: 1d87 c83d ba7e 03be 30af fa3c ce5f 283e
00000360: b6c7 8dbd 16a5 113e 62b6 64bc aa77 d0bd
00000370: 4040 11bd 73da 633e d050 aabd ee8b 363d
00000380: c180 f8bd d627 593d b0da 18be 614e 2a3c
00000390: 57b3 033e 876b bbbd a6ed 07be 836d 90bd
000003a0: fd01 7bbd 91a2 f83d 2ed1 c4bd fca6 563d
000003b0: 1909 393e 7c66 353d 47c0 a8bd f933 14be
000003c0: f482 363c 8121 b0bc f743 0d3e 2b25 09bc
000003d0: d956 b6bd b1d6 a33d c620 49be 0da9 f93d
000003e0: 6583 f9bd adc5 983c 9d8c 473c 8eb4 a33d
000003f0: 986a 143e bb62 3a3e 2c5f 41be e2ab 42bc

conv.bias f4 [32]
-0.12328617 0.057508625 0.02920184 -0.016130848 0.04421828 -0.020065488 -0.13210666 -0.0493101
0.084106244 -0.119835936 -0.005559843 0.015665961 -0.018986896 0.08202693 -0.069205515 0.09645478
0.07685902 0.038682334 0.0034840312 -0.052281387 0.13536356 0.020287184 0.011627117 0.13216616
0.12667504 -0.11588158 -0.11820959 0.06955403 -0.077744156 0.051204164 0.06449128 -0.08283631
00000000: 767d fcbd 2a8e 6b3d b238 ef3c d724 84bc
00000010: 3a1e 353d 6160 a4bc f846 07be 63f9 49bd
00000020: e53f ac3d 8b6c f5bd 582f b6bb e755 803c
00000030: 688a 9bbc bcfd a73d 9fbb 8dbd 158a c53d
00000040: 4368 9d3d 5e71 1e3d 5854 643b 0225 56bd
00000050: bf9c 0a3e 4f31 a63c aa7f 3e3c 9156 073e
00000060: 1ab7 013e 5253 edbd df17 f2bd 5872 8e3d
00000070: 5438 9fbd 75bb 513d 0114 843d 15a6 a9bd

hidden1.weight f4 [128, 1600]
0.032007966 0.016646303 -0.03528225 0.0141101265 -0.021364722 0.07425686 -0.054180082 0.005201218
0.034899533 0.012601637 -0.00015194947 -0.026624091 -0.026885187 -0.032459192 -0.017313693 0.028399123
0.013719187 -0.017618453 0.030220695 -0.03544794 0.03602962 -0.025109855 0.060790036 0.06473037
-0.016641635 -0.004137259 -0.06417795 0.08591746 -0.034885094 0.035364643 0.07395505 -0.034305554
0.02833265 -0.0017930194 0.02988395 -0.04890763 0.044500068 0.023828223 0.03699219 0.019691221
-0.029500572 0.012487465 -0.0155213745 -0.012958054 -0.0076869465 0.009588089 -0.054845028 0.14406317
0.02976724 -0.045152154 0.023172682 0.031227447 0.02502255 -0.011618447 0.0033311371 -0.008972221
-0.03606925 0.08003569 -0.09333046 0.03017021 -0.02375626 0.042219423 0.044217426 -0.032639004
0.048883285 0.014926495 0.057583626 0.05647339 0.08281013 0.027700884 -0.07430834 -0.015374502
0.09901425 -0.0364394 -0.053223364 0.018862631 -0.0028264883 0.047856897 0.12718955 0.0028667431
-0.020550812 0.013439247 -0.07056115 -0.00579544 0.03618518 0.0011637051 0.049273156 0.007347594
0.009742106 0.041450527 -0.019546617 0.068078436 -0.0013588517 0.007434339 -0.0060657803 -0.054826915
0.01708285 -0.058302373 -0.03334278 0.024870064 0.026879543 -0.013994415 -0.020434774 -0.026159517
-0.05614078 0.014588033 -0.057787452 -0.01696545 0.05104917 -0.04774404 -0.010556007 0.053699262
0.016574046 0.0036476187 0.015684756 -0.017954262 0.0021216106 0.06419014 0.13379651 -0.046905916
0.019610351 0.02179162 -0.026165986 0.0040057003 -0.031387217 0.050260738 -0.038675327 0.014929315
0.0744212 0.103707634 -0.03252512 -0.05528314 -0.076480724 0.0208892 0.047108967 -0.007066149
0.034330245 0.0034756039 0.21301354 0.037589826 -0.00051827315 -0.048099466 0.022573272 -0.07373216
-0.037109498 0.03828461 0.03600527 -0.046739407 -0.07928311 0.052805144 -0.008334318 0.037999637
0.062473103 0.03656924 0.06671092 -0.000658707 -0.0041100457 -0.0041550486 0.028614389 -0.06702817
-0.0036106945 0.05788904 0.034995988 -0.045540165 0.011472285 -0.023027811 0.048858516 -0.01823645
0.10372334 -0.01561589 0.0373219 0.01419093 0.034421116 0.025453134 -0.014774719 -0.04080755
0.01718642 0.027507668 -0.029141277 -0.027753646 -0.008066237 0.034658257 -0.03480262 -0.03127123
0.072438955 0.023469446 0.010659674 -0.016563483 -0.0010378312 -0.036978696 0.018262565 0.053264603
-0.033098336 -0.0031607694 -0.029104806 0.0037445806 0.042330764 -0.038361724 -0.03789161 -0.01364441
0.04446059 0.034099817 0.01011445 0.008330238 -0.040531304 -0.02399662 0.06457616 -0.0009225042
0.013734316 0.0059205615 -0.16626868 -0.034539644 0.0820186 0.176105 0.028695624 -0.12295725
0.04248746 -0.08280933 0.0060188654 0.047538765 -0.001955853 0.01333821 0.01457267 -0.044811722
-0.019675178 0.032695454 -0.00030474167 0.06655234 0.04177503 -0.0485571 -0.053944144 0.020711057
-0.097143725 -0.023625301 0.06601012 0.050136838 -0.018405914 -0.057391558 0.06669653 -0.100768104
-0.08432308 -0.07099997 -0.017923212 -7.319737e-05 0.15813483 0.00776621 -0.06343181 0.0324059
-0.031174615 -0.028431019 0.022783544 0.017122544 -0.0253895 -0.03715112 -0.084628165 0.0054486715
00000000: c91a 033d d45d 883c 1f84 10bd 292e 673c
00000010: 1205 afbc fb13 983d efeb 5dbd fb6e aa3b
00000020: d0f2 0e3d 1977 4e3c a054 1fb9 c41a dabc
00000030: 533e dcbc eef3 04bd 72d5 8dbc 47a5 e83c
00000040: 71c6 603c 9354 90bc 6491 f73c dc31 11bd
00000050: cb93 133d 2fb3 cdbc f9fe 783d 5b91 843d
00000060: 0a54 88bc d891 87bb bb6f 83bd 7ef5 af3d
00000070: ace3 0ebd 84da 103d bf75 973d fb83 0cbd
00000080: e019 e83c bf03 ebba 2fcf f43c 5e53 48bd
00000090: b445 363d 6833 c33c 1f85 173d 7c4f a13c
000000a0: 2fab f1bc 3998 4c3c 5d4d 7ebc 054e 54bc
000000b0: c8e2 fbbb 5c17 1d3c 2ea5 60bd 4c85 133e
000000c0: 6dda f33c 77f1 38bd a3d4 bd3c b4d0 ff3c
000000d0: 17fc cc3c 4c5b 3ebc 354f 5a3b 3900 13bc
000000e0: 5abd 13bd c0e9 a33d 0a24 bfbd 8427 f73c
000000f0: 7d9c c2bc 46ee 2c3d 551d 353d 7ab0 05bd
00000100: d739 483d 428e 743c cfdc 6b3d a450 673d
00000110: 5c98 a93d f7ec e23c f92e 98bd 56e5 7bbc
00000120: fcc7 ca3d 7b41 15bd be00 5abd ce85 9a3c
00000130: 9b3c 39bb 9805 443d fa3d 023e f8df 3b3b
00000140: 2d5a a8bc 4a30 5c3c 5d82 90bd ade7 bdbb
00000150: e936 143d 7787 983a a6d2 493d 16c4 f03b
00000160: 5b9d 1f3c 07c8 293d 3a20 a0bc b56c 8b3d
00000170: 7f1b b2ba c19b f33b 74c3 c6bb 3092 60bd
00000180: 55f1 8b3c 78ce 6ebd 7092 08bd 4ebc cb3c
00000190: 7d32 dc3c d548 65bc d466 a7bc 7c4c d6bc
000001a0: e0f3 65bd a502 6f3c 89b2 6cbd 21fb 8abc
000001b0: ef18 513d 418f 43bd 1af3 2cbc c2f3 5b3d
000001c0: 4bc6 873c e30c 6f3b 517d 803c d114 93bc
000001d0: b80a 0b3b 1f76 833d f401 093e 6b20 40bd
000001e0: e3a5 a03c 5784 b23c 0d5a d6bc 4042 833b
000001f0: e28f 00bd 34de 4d3d 056a 1ebd 169a 743c
00000200: 246a 983d ab64 d43d 0f39 05bd 9370 62bd
00000210: eda1 9cbd d41f ab3c 55f5 403d 278b e7bb
00000220: df9d 0c3d f5c6 633b 3920 5a3e caf7 193d
00000230: b9dc 07ba f203 45bd 95eb b83c e300 97bd
00000240: 2100 18bd 53d0 1c3d 437a 133d d271 3fbd
00000250: 2f5f a2bd 354a 583d aa8c 08bc 82a5 1b3d
00000260: cce3 7f3d a1c9 153d bc9f 883d 14ad 2cba
00000270: 90ad 86bb 1327 88bb b968 ea3c 1146 89bd
00000280: 67a1 6cbb 0f1d 6d3d f457 0f3d 5388 3abd
00000290: 40f6 3b3c d2a4 bcbc de1f 483d 9c64 95bc
000002a0: e76c d43d cad9 7fbc d9de 183d 1381 683c
000002b0: 28fd 0c3d 1783 d03c aa11 72bc d125 27bd
000002c0: 89ca 8c3c c357 e13c b0b9 eebc 9d5b e3bc
000002d0: 4028 04bc d1f5 0d3d 318d 0ebd 4316 00bd
000002e0: e05a 943d ff42 c03c eaa5 2e3c 24b0 87bc
000002f0: d607 88ba f976 17bd 609b 953c fc2b 5a3d
00000300: 1f92 07bd e924 4fbb 346d eebc a367 753b
00000310: 0663 2d3d 2f21 1dbd 3c34 1bbd ce8c 5fbc
00000320: 4f1c 363d 40ac 0b3d 14b7 253c 8d7b 083c
00000330: 2704 26bd 8f94 c4bc 8140 843d 35d4 71ba
00000340: e605 613c 4501 c23b 5642 2abe 7179 0dbd
00000350: 5ef9 a73d de54 343e 1613 eb3c 03d1 fbbd
00000360: 5507 2e3d f097 a9bd e739 c53b 02b8 423d
00000370: c52d 00bb 8288 5a3c 35c2 6e3c 7f8c 37bd
00000380: d72d a1bc abeb 053d bcc5 9fb9 984c 883d
00000390: 4b1c 2b3d cfe3 46bd 89f4 5cbd 3caa a93c
000003a0: 4af3 c6bd d989 c1bc 5030 873d 495c 4d3d
000003b0: 00c8 96bc 6913 6bbd 3198 883d 825f cebd
000003c0: 94b1 acbd 6f68 91bd b3d3 92bc 8a81 99b8
000003d0: 19ee 213e b17b fe3b 89e8 81bd 0dbc 043d
000003e0: e861 ffbc 2be8 e8bc 8ea4 ba3c 9444 8c3c
000003f0: a4fd cfbc c62b 18bd 8851 adbd c58a b23b

hidden1.bias f4 [128]
-0.017058888 -0.021419961 -0.010730314 -0.021782208 -0.006177597 -0.01591924 0.0019107156 0.018713225
0.017569482 0.0073809894 0.00324573 0.007709694 -0.028676257 0.03604552 0.0062345434 -0.0008484243
0.00095434254 4.0576746e-05 -0.0184544 -0.015029391 -0.01601628 0.011686946 -0.024384685 0.020294491
0.010742396 0.021446543 -0.010633177 -0.018879885 -0.017449351 0.0015919454 0.017058417 0.0028587985
0.004909951 -0.0054380083 -0.004648072 0.02554489 0.005295198 0.011508473 -0.015381373 -0.016859546
0.017302342 0.0075396625 0.029249731 -0.008880719 -0.0037247518 -0.02186833 -0.020240674 0.027516738
0.014203525 0.012394555 0.01549315 0.014918403 0.0030773664 0.023917943 0.0153011875 -0.0047951075
0.008499942 0.016202092 -0.007580296 -0.01683715 -0.0002718487 0.0032908095 0.028509459 0.030555164
-0.007894291 0.008785806 0.016495178 0.007391291 -0.010386121 0.008703694 0.015895644 -0.02475957
-0.016971868 -0.022269769 -0.009877527 -0.013223096 0.009870186 -0.010358144 0.0055289324 -0.0043340055
0.02472682 -0.02211461 -0.016137278 0.023516806 -0.019173231 0.01003734 0.0018860087 0.005242427
0.01962768 -0.024155661 -0.014378541 0.012049191 0.0039521926 -0.013061138 0.0110431025 -0.011301221
-0.015171522 -0.003335238 0.030613646 -0.00596822 0.027028296 0.01754533 -0.0006859217 -0.02551025
0.0063510877 0.017363362 0.024946759 -0.023082612 0.024948528 0.025638167 -0.020152617 -0.02092583
-0.006880585 -0.006934551 0.021442898 0.026717983 0.00829681 -0.022062657 0.030050296 0.030624354
-0.02894754 -0.015514623 0.019132249 0.020776078 0.010477275 -0.008328132 0.018347006 -0.0039654137
00000000: 15bf 8bbc ea78 afbc 33ce 2fbc 9a70 b2bc
00000010: 716d cabb 1169 82bc fa70 fa3a 7a4c 993c
00000020: e0ed 8f3c 3adc f13b 50b6 543b 9aa1 fc3b
00000030: 78ea eabc 78a4 133d 244b cc3b ca68 5eba
00000040: d82c 7a3a f330 2a38 af2d 97bc d63d 76bc
00000050: 9334 83bc 9b7a 3f3c 64c2 c7bc a240 a63c
00000060: e000 303c a9b0 af3c c736 2ebc fda9 9abc
00000070: f1f1 8ebc d3a8 d03a 18be 8b3c ae5a 3b3b
00000080: a7e3 a03b 5231 b2bb db4e 98bb 8443 d13c
00000090: 5783 ad3b 098e 3c3c 2802 7cbc 081d 8abc
000000a0: a4bd 8d3c 460f f73b 229d ef3c 6f80 11bc
000000b0: f71a 74bb 3625 b3bc c5cf a5bc c86a e13c
000000c0: e7b5 683c 8812 4b3c fbd6 7d3c 516c 743c
000000d0: a4ad 493b 90ef c33c d5b1 7a3c 4720 9dbb
000000e0: 5743 0b3c 40ba 843c 2264 f8bb 10ee 89bc
000000f0: ea86 8eb9 9faa 573b ab8c e93c d34e fa3c
00000100: 0e57 01bc 57f2 0f3c e520 873c a532 f23b
00000110: 8d2a 2abc f099 0e3c 9537 823c 95d4 cabc
00000120: 9608 8bbc 176f b6bc 5ad5 21bc afa5 58bc
00000130: 90b6 213c 34b5 29bc 0c2c b53b 4604 8ebb
00000140: e68f ca3c b329 b5bc 5332 84bc 51a6 c03c
00000150: 2e11 9dbc a873 243c f333 f73a aac8 ab3b
00000160: 3aca a03c 18e2 c5bc f993 6bbc f869 453c
00000170: 6581 813b 62fe 55bc 21ee 343c c228 39bc
00000180: fa91 78bc 0294 5abb 78c9 fa3c 0f91 c3bb
00000190: 726a dd3c 39bb 8f3c 6dcf 33ba dffa d0bc
000001a0: c91c d03b 9c3d 8e3c 255d cc3c bf17 bdbc
000001b0: db60 cc3c 2207 d23c 1a17 a5bc a56c abbc
000001c0: 8876 e1bb 3b3b e3bb 04a9 af3c acdf da3c
000001d0: 58ef 073c bfbc b4bc 0a2c f63c eddf fa3c
000001e0: 6423 edbc 0c31 7ebc 3cbb 9c3c 9832 aa3c
000001f0: e0a8 2b3c b872 08bc 764c 963c 4df0 81bb

hidden2.weight f4 [34, 128]
0.009631531 -0.07976725 0.05387005 0.00908644 -0.007909416 -0.022534234 0.07208189 -0.050539255
0.061693717 -0.08477082 0.07096332 0.027052388 -0.028036265 -0.008453133 0.000202459 -0.030521676
-0.008674038 -0.09726498 0.07693845 0.020909613 -0.04752139 0.06610762 -0.059803218 0.0018545915
0.0789071 0.00033543186 -0.013774016 0.04851887 -0.03056155 -0.027256774 0.018525189 0.023278654
-0.056459885 -0.082769364 -0.009349556 0.0014638616 0.013784651 -0.002616246 -0.050660726 -0.084932685
0.03346651 -0.019591868 0.07548952 -0.006182791 0.04444717 -0.049501635 -0.111049145 -0.090263516
0.0252339 -0.088937394 0.035568595 0.07000494 0.0643262 -0.037134588 0.07382588 -0.049063683
-0.0733082 -0.08695314 -0.048664033 0.010594494 -0.06154878 0.031675313 -0.029630298 0.04176014
-0.07767066 -0.069619305 0.0070279883 0.06113333 -0.07001832 -0.0073540932 -0.031743325 -0.0651984
-0.06578323 -0.058739904 -0.05229504 0.02016249 0.061790146 -0.028724713 -0.009891131 -0.062438693
-0.0021989774 0.027724532 0.036756843 -0.040553704 -0.017459251 0.0034605449 -0.042835116 0.03161118
-0.04351985 0.060613804 -0.06232021 0.033286933 -0.06546157 -0.010168152 -0.023306636 -0.07862911
-0.0022986555 -0.05640379 -0.00789763 -0.08570673 -0.0053607193 -0.019190557 0.010787437 0.03213165
0.07312037 0.0482993 0.013697371 -0.07367537 -0.044378415 -0.08508369 0.066909276 -0.030961841
-0.019953568 0.036220342 0.071200445 -0.0959053 0.0609851 0.07312955 -0.09252447 0.071599536
0.010913774 0.07729989 -0.08124174 0.009743934 0.044724442 -0.07705124 -0.07691814 0.05009392
-0.030160662 -0.055115525 0.13849415 0.068250105 0.059224468 0.015766941 -0.04986123 -0.12689848
-0.059146028 -0.08476287 -0.010796608 -0.09829764 0.04086007 -0.051979035 0.036280904 -0.1113546
-0.012762558 -0.00022809175 0.07497605 -0.08766771 0.10210861 0.013909291 0.024253918 -0.022532467
0.072779305 -0.020240597 -0.007669596 0.02827487 0.08963896 -0.033806454 0.030916901 -0.0783784
-0.0630638 0.0860622 0.33413723 0.065577194 0.07967123 -0.12306795 -0.060804833 0.008459749
0.08628621 0.10857696 0.10231551 -0.074603416 0.04610273 0.06271696 0.097390324 0.041950513
-0.053033598 0.0879271 -0.13018607 0.098056614 0.062487893 -0.008871555 0.025825385 -0.08185572
0.11795204 -0.040744793 -0.026887938 0.01263962 0.020317946 0.11720123 -0.077708185 0.14804259
-0.041431088 -0.05446443 -0.0030751307 -0.036409922 -0.073322594 0.07744425 0.11215144 -0.049149897
-0.01628237 0.015259079 0.07889814 -0.0063841348 0.054853614 -0.07671405 0.10034505 -0.03617449
-0.19925646 -0.033285182 0.0869523 -0.099934585 -0.03924208 -0.057717424 -0.0008630428 -0.013080047
-0.08609012 0.048710387 -0.020791737 0.032344174 -0.09271986 -0.13412815 -0.030027071 0.027039163
0.17822655 -0.07199786 0.014353839 0.066260256 -0.02654995 0.08920786 -0.016814247 0.039539214
0.011276719 0.022347946 0.01786939 0.06167329 -0.11773431 0.025531005 -0.046068255 0.072835095
0.0801433 -0.031230774 -0.005905488 0.023508275 -0.03279258 -0.025799422 0.08354687 -0.0794078
-0.013538539 0.036092114 -0.06613808 -0.03626892 -0.11725316 0.116181314 0.05156423 0.0065228892
00000000: 92cd 1d3c 035d a3bd d7a6 5c3d 4bdf 143c
00000010: 7f96 01bc b799 b8bc ac9f 933d 4002 4fbd
00000020: 8db2 7c3d 539c adbd 3855 913d f89c dd3c
00000030: 4fac e5bc 027f 0abc 2d4b 5439 9808 fabc
00000040: 8d1d 0ebc dd32 c7bd e891 9d3d a34a ab3c
00000050: caa5 42bd 6f63 873d 38f4 74bd c415 f33a
00000060: 0c9a a13d e7dc af39 69ac 61bc b9bb 463d
00000070: 375c fabc 9949 dfbc 23c2 973c e0b2 be3c
00000080: 7b42 67bd fc82 a9bd e12e 19bc 0bdf bf3a
00000090: 04d9 613c 5375 2bbb 9f81 4fbd 30f1 adbd
000000a0: 2e14 093d 207f a0bc 409a 9a3d 0399 cabb
000000b0: 3c0e 363d 3ac2 4abd bc6d e3bd 14dc b8bd
000000c0: 53b7 ce3c cf24 b6bd 60b0 113d c05e 8f3d
000000d0: 74bd 833d 701a 18bd 0632 973d 00f7 48bd
000000e0: 9c22 96bd 7d14 b2bd f053 47bd 8794 2d3c
000000f0: 931a 7cbd f9bd 013d 3dbb f2bc ae0c 2b3d
00000100: cc11 9fbd 9194 8ebd 0a4b e63b f166 7a3d
00000110: c465 8fbd 9bfa f0bb 4a05 02bd bd86 85bd
00000120: 5cb9 86bd 4199 70bd 5333 56bd ce2b a53c
00000130: aa17 7d3d 1750 ebbc 690e 22bc b7bf 7fbd
00000140: b81c 10bb 8f1e e33c 588e 163d a41b 26bd
00000150: b406 8fbc 4fca 623b e073 2fbd ba7a 013d
00000160: df41 32bd 2e46 783d 7a43 7fbd e157 083d
00000170: b710 86bd 5298 26bc 8fed bebc 4c08 a1bd
00000180: 0aa5 16bb a907 67bd 1065 01bc 0387 afbd
00000190: f9a8 afbb 8435 9dbc cabd 303c 7a9c 033d
000001a0: 22c0 953d 7dd5 453d f06a 603c 1de3 96bd
000001b0: 24c6 35bd 5c40 aebd bb07 893d b0a3 fdbc
000001c0: aa75 a3bc c85b 143d 8ad1 913d ff69 c4bd
000001d0: 83cb 793d f2c4 953d 787d bdbd c7a2 923d
000001e0: b0cf 323c 684f 9e3d 1262 a6bd 05a5 1f3c
000001f0: fa30 373d 0acd 9dbd 4287 9dbd 482f 4d3d
00000200: 7e13 f7bc d1c0 61bd 69d1 0d3e b6c6 8b3d
00000210: 5b95 723d ac29 813c 4a3b 4cbd adf1 01be
00000220: 1b43 72bd 2898 adbd 42e4 30bc 4650 c9bd
00000230: e45c 273d f8e7 54bd 499b 143d e10d e4bd
00000240: 0c1a 51bc ea2b 6fb9 0b8d 993d 218b b3bd
00000250: 521e d13d cbe3 633c 27b0 c63c 0296 b8bc
00000260: 510d 953d 9ccf a5bc 3c51 fbbb b3a0 e73c
00000270: a294 b73d a378 0abd 7145 fd3c db84 a0bd
00000280: 9827 81bd 6141 b03d 0914 ab3e 564d 863d
00000290: ab2a a33d 0d0b fcbd 7d0e 79bd c29a 0a3c
000002a0: d3b6 b03d 995d de3d cb8a d13d adc9 98bd
000002b0: 37d6 3c3d c071 803d 9474 c73d 4dd4 2b3d
000002c0: c239 59bd 2013 b43d 7f4f 05be e8d1 c83d
000002d0: 4ef3 7f3d 005a 11bc c28f d33c f9a3 a7bd
000002e0: d790 f13d 03e4 26bd 1844 dcbc 6916 4f3c
000002f0: d271 a63c 3307 f03d 7825 9fbd 7a98 173e
00000300: a5b3 29bd 1816 5fbd 2288 49bb 9222 15bd
00000310: 282a 96bd 179b 9e3d a7af e53d 6751 49bd
00000320: 9b62 85bc 3701 7a3c 5995 a13d 0132 d1bb
00000330: 2fae 603d 411c 9dbd b581 cd3d b42b 14bd
00000340: e309 4cbe 0b56 08bd 0c14 b23d 81aa ccbd
00000350: 4ebc 20bd 1b69 6cbd d23d 62ba b24d 56bc
00000360: 0450 b0bd 8b84 473d 6f53 aabc 537b 043d
00000370: e9e3 bdbd e458 09be 55fb f5bc 3c81 dd3c
00000380: 0581 363e 9d73 93bd 5d2c 6b3c 75b3 873d
00000390: 487f d9bc 9cb2 b63d 08be 89bc dff3 213d
000003a0: fdc1 383c 0a13 b73c d462 923c 229d 7c3d
000003b0: b01e f1bd 6626 d13c 11b2 3cbd 912a 953d
000003c0: 2c22 a43d aed7 ffbc d382 c1bb 6d94 c03c
000003d0: 8351 06bd 4f59 d3bc 9f1a ab3d 8fa0 a2bd
000003e0: c0d0 5dbc 53d5 133d 6773 87bd b88e 14bd
000003f0: 6d22 f0bd 78f0 ed3d 0435 533d f6bd d53b

hidden2.bias f4 [34]
0.03918463 0.08030871 0.0574407 -0.05385088 0.030760044 0.059796035 0.04192068 0.07660297
0.021349588 0.016590077 -0.017275296 -0.06575127 0.06454052 0.013569919 -0.0146227265 0.10359491
-0.024714556 -0.041112144 0.025710817 -0.062319912 0.0150083145 -0.059117474 0.031936828 -0.012304966
0.03900918 -0.061363246 -0.005902622 -0.05279189 -0.059536245 -0.06474574 0.0043284646 0.034371205
-0.027790133 -0.025982207
00000000: 1080 203d e578 a43d f046 6b3d be92 5cbd
00000010: 7dfc fb3c b0ec 743d 05b5 2b3d 05e2 9c3d
00000020: 55e5 ae3c eae7 873c ec84 8dbc 9aa8 86bd
00000030: d22d 843d 5e54 5e3c 2994 6fbc 9129 d43d
00000040: 2e76 cabc 3565 28bd 7e9f d23c 2a43 7fbd
00000050: 6fe5 753c 2a25 72bd 31d0 023d c59a 49bc
00000060: 17c8 1f3d 0758 7bbd c86a c1bb 4f3c 58bd
00000070: 47dc 73bd 6a99 84bd cbd5 8d3b d2c8 0c3d
00000080: 22a8 e3bc a3d8 d4bc
