Model/output_dir/1DCNN_0728_1e-5.pt (torch_old, 847600 bytes, 6 tensors)

conv.weight f4 [32, 1, 1, 71]
000000 c8 10 39 bc ef e1 ee 3c 76 50 a6 3c 8b 49 be bd
       -0.011295505 0.029160468 0.020302039 -0.09291371
000010 2b ac af bd 78 fb f1 3c 9b c2 42 bd 65 ab d1 3c
       -0.0857776 0.029538855 -0.04754887 0.025594423
000020 b1 86 2f bd f7 00 1e bd 62 23 0c bd ac 3c 9a bc
       -0.04285306 -0.03857514 -0.03421343 -0.018827759
000030 82 17 d5 3d 87 54 59 3d a7 a6 09 3e 24 21 f4 3c
       0.104048744 0.053059127 0.13442479 0.029800959
000040 d9 ce 3f 3c 7a f8 ac bd de c7 93 bd 3d 93 e2 3c
       0.011707031 -0.08445831 -0.07215856 0.0276581
000050 6f 6e e4 3d 1b da 01 be a6 f2 81 bc b3 99 87 bd
       0.11153876 -0.12680857 -0.015862774 -0.06621113
000060 e0 12 bc bd a3 0a 01 bd 17 c5 ee bd 52 08 d8 bd
       -0.091832876 -0.031504285 -0.11658686 -0.10548462
000070 87 bc 75 3d fe 08 45 3d f3 70 0a 3e ed 49 d9 bc
       0.059994247 0.04810428 0.13519649 -0.026524508
000080 26 1b d0 3d 06 95 30 bd 58 57 03 3c 3f 16 cf bd
       0.10161428 -0.04311087 0.00801643 -0.10111665
000090 4a 3c d8 3d a9 94 6a 3d a4 2f 48 3c ca d3 c8 3c
       0.10558374 0.05727068 0.01221839 0.024515051
0000a0 60 65 b5 3d bc 85 47 bd 87 08 26 bd 24 90 a5 3d
       0.08857226 -0.048711523 -0.040535476 0.08084133
0000b0 fa ad 1d 3d d9 08 b7 3c c8 94 99 bc 80 dd 71 bd
       0.038495995 0.022343086 -0.018747702 -0.05904913
0000c0 f8 7a 36 3d 2e 59 ed 3d 0c af cc bd 88 f9 46 3d
       0.044550866 0.11589275 -0.09994325 0.048577815
0000d0 b4 da b5 3d 7d dc 16 3d 47 30 83 3d 91 bc bf bd
       0.08879605 0.036831368 0.064056925 -0.09362138
0000e0 6a a1 e1 3d 13 e4 89 3c 26 f9 fb 3d c5 6c b4 3d
       0.110171154 0.016832387 0.12303381 0.08809809
0000f0 69 ab 10 3e 89 ed d0 3d 62 84 ec bc 18 bb dc bd
       0.14127888 0.10201556 -0.028871719 -0.10777873
000100 e3 48 bd 3b 0a d7 6b 3d c8 07 ec 3d 14 a7 b5 3d
       0.005776511 0.057578124 0.11524922 0.08869758
000110 53 f8 05 3e 96 2c e8 3d a5 61 6c 3d e7 29 92 3d
       0.1308301 0.11336629 0.05771031 0.071368985
000120 2d e7 61 3d bb 64 b7 3d f2 41 4b bd c0 3b 73 3c
       0.055152107 0.0895476 -0.049623437 0.0148457885
000130 3e 71 7c 3d a4 32 9d bd 0b a9 cd 3d 59 82 b4 bd
       0.061631434 -0.076756746 0.10042008 -0.08813924
000140 99 42 0f bd 0b d3 c9 bd 16 bf 52 3d b8 68 96 3d
       -0.03497562 -0.098547064 0.051451765 0.07344192
000150 da 5c eb bd fc ca f9 3d 25 2e ab 3d be bc fb bd
       -0.114923194 0.12196919 0.08358411 -0.12291859
000160 c9 e3 ba bd 67 0a 6f 3d 38 fd c7 bd 3f a0 cb bd
       -0.09125478 0.05835953 -0.097650945 -0.09942674
000170 0e 13 84 bb 12 ae 85 bd 9e c3 40 3d 79 f6 69 bd
       -0.004030592 -0.06527342 0.047061555 -0.05711982
000180 fe 23 a8 bd 1a 6a 0d 3e d3 ad da 3d 11 e7 e7 bd
       -0.0820999 0.13810006 0.106776856 -0.11323369
000190 aa 51 e4 38 b9 c9 fa 3d 65 03 7f 3d 36 82 d1 3d
       0.00010887098 0.12245507 0.062259097 0.10229914
0001a0 5c 98 48 ba 4d a0 cf 3d 0d 20 d8 3c 8c 63 77 bc
       -0.0007652098 0.10137997 0.02638247 -0.015099417
0001b0 57 c0 21 bd 0c 8a 75 3d 69 17 e5 3d 49 69 e1 bd
       -0.03949007 0.059946105 0.11186106 -0.1100641
0001c0 11 ae 6f 3d 4e 50 9f 3d 7e f0 e7 3d 81 02 f6 bc
       0.058515612 0.07778989 0.11325167 -0.03003049
0001d0 2f d7 57 3a 3b 83 2f 3c 1a 5a 09 3e f3 2d d0 3d
       0.0008233664 0.01071244 0.13413277 0.10165014
0001e0 c6 bc a9 bd 0c 0b 91 3d 09 33 d9 bd 47 1d 11 3e
       -0.08287959 0.07082185 -0.10605437 0.14171325
0001f0 e0 3e b9 3d dc e8 18 bd 5f a2 bc bd 34 03 37 bd
       0.090451956 -0.037331447 -0.09210657 -0.04468079
000200 b5 e2 d7 3d 1c 5b e2 3d b1 6c a4 3d a6 bf 5c 3d
       0.10541288 0.11052534 0.08028544 0.053893708
000210 38 9a a3 3c 6a 9a d4 3d a3 bc 8b bc 3c 4d 40 3d
       0.019970998 0.10381015 -0.017057722 0.046948656
000220 ef e1 95 3c e9 3f 78 3c 9f 97 90 bb 82 dd ae 3d
       0.01829621 0.015151956 -0.004412606 0.08538343
000230 a7 e2 bd bc 54 78 e1 bc 04 1a 5b 3c 5a 31 da 3c
       -0.023179365 -0.027523197 0.013372902 0.02663486
000240 37 c1 e0 bc ac 2c 0e 3e cc 11 6d bd 15 3a 85 3c
       -0.027435882 0.13884228 -0.0578783 0.016263047
000250 bd 60 65 3d 46 96 99 3d 3a ca 00 bd 54 b0 04 3e
       0.05600046 0.074993655 -0.03144286 0.12957889
000260 be 30 78 bd 2c eb 53 3d ac e4 d0 3d 76 54 a2 3d
       -0.06059336 0.05173795 0.10199866 0.07926266
000270 8a f6 15 3e d0 39 59 bd fd 64 78 bd 9e d5 88 bd
       0.14644828 -0.05303365 -0.060643185 -0.06681369
000280 f3 d6 9c bc 64 be bb bd 43 66 a4 bd 2d 7f bf bc
       -0.019145465 -0.091671735 -0.080273174 -0.023376072
000290 01 93 83 3d 38 7a b7 bc 63 54 4d bd 57 ee ca 3c
       0.06424523 -0.022397146 -0.050129306 0.024771852
0002a0 76 25 e8 3d 85 5c 3a 3d cd 90 fa 3d df f2 e9 bb
       0.1133527 0.04549839 0.1223465 -0.007139548
0002b0 a9 50 b9 3c cd 74 fa 3d c3 c2 a7 3d 4d 95 a0 3d
       0.02262147 0.12229309 0.08191445 0.07840977
0002c0 72 af 43 bd f3 67 be bd b7 b4 a9 bc 0c 73 49 bd
       -0.04777474 -0.092971705 -0.020716054 -0.049181983
0002d0 3f 31 b4 bd cd 7f d0 bc 70 a9 26 bb 2d 23 03 3e
       -0.087984554 -0.025451565 -0.0025430582 0.12806387
0002e0 99 dd 9e bd 85 ba 21 bb b5 ec 53 bd e7 3f 0e 3e
       -0.0775711 -0.0024677825 -0.051739413 0.13891564
0002f0 c2 62 b4 bd 05 0b 7a bd f2 bf 1c 3d 68 1d 72 bd
       -0.08807899 -0.061045665 0.03826899 -0.059110075
000300 7a 9c 6f 3d e2 72 94 3d 43 25 e2 bc 8c 01 19 3d
       0.058498837 0.07248475 -0.027605658 0.03735499
000310 37 46 69 bd 3c 4e 07 3e a6 96 44 bd d4 86 e0 3d
       -0.056951728 0.13213438 -0.047995232 0.109632164
000320 11 0f 66 bd ba f4 e3 3c 99 87 19 3e 39 a2 d2 bc
       -0.056166712 0.027826656 0.14993133 -0.02571212
000330 d4 a8 08 3d 1e f7 ca bc fc fb 19 3d 14 20 83 bd
       0.033364132 -0.024776038 0.037593827 -0.06402603
000340 d0 35 bd 3d 53 eb d4 3a ae 10 b2 bd fe ba f7 bb
       0.092387795 0.0016244448 -0.08694588 -0.007560133
000350 17 01 fe bb 1e 21 1d 3d d0 d9 de bd 38 b5 c9 3d
       -0.0077515948 0.03836166 -0.10881388 0.09849018
000360 f5 a3 96 3d 87 26 04 3e f4 fa 7e 3d cd 34 bb bd
       0.07355491 0.12905322 0.062251046 -0.0914093
000370 25 0f 01 3d bf 96 f9 bb 81 fa 90 bd 0c 7f d7 3d
       0.031508584 -0.0076168473 -0.0707903 0.10522279
000380 e3 4c 91 bd cc f6 2e 3d e9 1b c1 3d b1 5a 87 3d
       -0.07094743 0.042715833 0.094291516 0.06609095
000390 e3 52 77 bd 7b 49 28 bd d9 91 2c 3c 4e ea de bd
       -0.06038178 -0.0410857 0.01053282 -0.10884534
0003a0 0e 52 02 3e 8d b7 dc bc 9c 76 0c 3d a9 ca d6 3d
       0.12726614 -0.026942993 0.034292802 0.10487873
0003b0 e3 3f cd bd 70 e4 d2 bd 58 f7 85 bb e5 8e d4 3d
       -0.10021951 -0.10297477 -0.0040883236 0.103788175
0003c0 b0 ff 01 3e bf 56 46 bd 52 68 11 3d 62 c8 8a 3b
       0.12695193 -0.04842257 0.03549988 0.0042353133
0003d0 fb 38 9c 3c 04 62 3b 3d 70 5b e7 3d 00 be 02 be
       0.01907014 0.04574777 0.11296737 -0.12767792
0003e0 5c 4c bd 3d 4c 84 cf bd 48 cd c8 3d f2 8c ca 3d
       0.0924308 -0.101326555 0.09804779 0.098901644
0003f0 57 8c c4 bd 62 81 58 3d 93 78 98 bd 0e 98 26 3d
       -0.0959708 0.052857764 -0.07444873 0.040672354

conv.bias f4 [32]
000000 0f 11 d5 bc 0a 4c 35 bd 4c 3c bb 3d 4a 38 e2 3d
       -0.02600911 -0.04426197 0.0914236 0.110458925
000010 47 fa 84 bc 9a 12 b6 bd cf 0b 42 3d 35 d1 e8 bc
       -0.016232623 -0.08890267 0.047374543 -0.02842007
000020 bc 3d b1 3d 18 fd b5 bc e9 13 09 bd 98 33 d2 3d
       0.08654353 -0.022215411 -0.033466253 0.10263747
000030 5d dc ee 3d e2 25 7b 3d 4b c7 96 bd 2e 64 a1 3d
       0.11663125 0.061315425 -0.07362231 0.07880436
000040 4b b2 88 3d be 61 7b 3d 1a 65 62 3b 60 53 1e 3c
       0.06674632 0.06137251 0.0034545125 0.009663433
000050 d9 c1 a0 bd ee 22 d6 3c 59 c0 bd 3c 68 dd c2 bb
       -0.078494735 0.026139703 0.023163008 -0.005946804
000060 f0 07 e1 3d d0 32 9d bd d8 1f 8f bd 59 90 c5 bd
       0.10987842 -0.07675707 -0.069884956 -0.09646673
000070 ab b6 8e 3d f1 bf 04 3e 77 17 dc 3d e6 67 a8 3c
       0.06968435 0.12963845 0.10746663 0.020557355

hidden1.weight f4 [128, 1600]
000000 7a e4 0d 3c b1 12 c0 3c 5d b6 d9 3c f0 ec 8e 3c
       0.00866043 0.023446413 0.026576215 0.017446965
000010 11 78 b4 ba 7c df 89 3c c3 88 83 3c c5 80 ec bb
       -0.0013768693 0.016830198 0.016056424 -0.007217499
000020 5a 56 30 bd 99 4f 9f bc e4 23 8a 3a 9d 20 a5 bc
       -0.0430511 -0.019447135 0.0010539261 -0.020157153
000030 cb f7 75 3b 20 3c aa 3c f8 8e 92 bb 7e 6d d4 ba
       0.003753173 0.020780623 -0.0044726096 -0.0016206948
000040 5f 6d b1 bb 76 d9 e3 bc 14 8f c9 3c ae 31 04 3d
       -0.0054146494 -0.027813654 0.024604358 0.03227394
000050 3e b1 d8 bb 4f a7 62 3b 8d c1 37 3c 55 1c 3b bc
       -0.006612926 0.0034584587 0.01121558 -0.011420329
000060 a9 24 09 bd e6 11 bf bb 68 37 81 3c f6 72 ff bb
       -0.033482227 -0.005830991 0.01577349 -0.007795687
000070 e3 6d 38 bc 3a 88 46 bc a3 99 dc 3c 7e 84 9e bc
       -0.011256668 -0.01211744 0.026928728 -0.019350287
000080 7e 36 d1 3c d4 be 13 3d ac 1c 62 bc f6 d3 0d 3c
       0.02553868 0.03607066 -0.013800781 0.008656492
000090 b4 22 9d bc b7 c3 47 3c af cb 89 3c 88 ab c2 ba
       -0.019181587 0.012192658 0.016820757 -0.0014852146
0000a0 63 0c aa bb 30 d9 b8 bb a0 47 d8 bb f9 45 2b bc
       -0.005189465 -0.005641125 -0.0066003352 -0.0104536945
0000b0 b3 58 f5 3b 58 15 74 bb fd 39 cf 3c 16 47 5c bc
       0.0074873804 -0.0037244167 0.025296206 -0.013444683
0000c0 82 f1 10 3d 71 9f 97 3b 80 b8 a7 3b b7 f4 3b bc
       0.03538657 0.004627161 0.0051184297 -0.011471919
0000d0 c2 3c b4 3c 3c 5c 57 bc e1 02 9d bc 93 4d 44 bc
       0.022001628 -0.013144549 -0.019166412 -0.011981386
0000e0 bf c9 98 3c 82 18 38 3c f0 13 09 3c ee d6 a6 3c
       0.018650888 0.011236312 0.00836657 0.020366158
0000f0 90 7c 02 3d a4 f8 73 3c d6 0d cb 3b 76 cd 93 3c
       0.031857073 0.0148908235 0.0061967177 0.018042307
000100 46 d0 42 bc 38 e6 b0 3c f0 bf 2b bc e8 ee 80 bb
       -0.011890477 0.021594152 -0.010482773 -0.00393473
000110 48 bc 3e bc 7b e7 0e 3b fa fd af 3c 1d 78 45 3c
       -0.011641569 0.0021805454 0.02148341 0.012052563
000120 c3 89 96 3c 2b 8e 90 bb 50 e4 91 bb 30 b0 ec 3c
       0.018376237 -0.004411479 -0.004452266 0.028892606
000130 f0 ce 98 3b e4 0d 53 bc 0b 9c 86 bc 92 39 8f 3a
       0.0046633407 -0.01288173 -0.016431829 0.0010927191
000140 2b d5 78 3c 31 6d 91 3c e8 24 8d bb dc 0a eb bb
       0.015187542 0.017752262 -0.004307378 -0.0071729254
000150 fe 3b 54 bb 15 ab 9b 3c b2 85 d9 b9 7a af 51 3c
       -0.003238439 0.019002477 -0.00041489076 0.0127981845
000160 92 8f eb 3b fe 23 8a 3b d2 90 15 bc 4c 7e 12 3c
       0.007188746 0.0042157164 -0.009128766 0.008941244
000170 f2 be 62 bc 59 49 84 3b d1 77 8c 3c 51 48 98 3c
       -0.01383947 0.004037064 0.017146977 0.01858917
000180 19 60 2c 3b ef 94 95 bc 69 63 24 3c a1 01 9b bb
       0.0026302396 -0.018259494 0.010033467 -0.004730419
000190 33 14 fa 3b 17 af 29 3c 71 86 ab 3c 5d 99 d1 bc
       0.0076318025 0.010356686 0.02093813 -0.025585825
0001a0 45 6e ad bc 92 fa 72 3b 08 8d c5 bc a0 58 3d 3c
       -0.021170745 0.003707562 -0.0241151 0.011556774
0001b0 72 ca e5 3c f6 45 03 3d 93 08 b6 3c 6a d0 b9 3b
       0.028050635 0.03204914 0.022220885 0.005670597
0001c0 1b 5f a4 3b 76 60 73 bc 10 5b 83 3c 06 15 0e bc
       0.0050162203 -0.014854541 0.016034633 -0.008672005
0001d0 5e 48 5d 3c a5 ab 1e bc de e7 f4 bc 95 ce 99 bc
       0.013506023 -0.009684478 -0.02989572 -0.018775264
0001e0 7c 52 07 bd 1c 8b 86 3b 7c ce b6 bc c1 56 bf 3c
       -0.033037648 0.0041059386 -0.022315256 0.023356797
0001f0 aa fd a0 bc cf a8 67 3c cb 7e d4 bc 94 74 24 bc
       -0.019652206 0.014139368 -0.025939366 -0.01003756
000200 c8 46 47 bc 64 e2 2d bc 41 fb 21 bc cb e3 39 bc
       -0.012162872 -0.010613058 -0.009886564 -0.011345814
000210 24 bd 45 3a 09 8f 07 3c 63 67 09 bd 5f 4d d8 bc
       0.0007543138 0.008273848 -0.033545863 -0.02640408
000220 ab 08 b9 3c 73 77 64 3c 7f c0 c7 3c 16 7f 63 3c
       0.022587141 0.013944495 0.024383781 0.01388528
000230 f5 2a 6a bc 86 5b 9e bc cf d0 dd bb 3a 11 18 ba
       -0.014292468 -0.019330751 -0.0067692767 -0.0005800907
000240 9a 03 21 bc 9a 0c 98 ba 6d 3a d4 3c bc f9 89 3c
       -0.009827519 -0.0011600435 0.025906766 0.016842715
000250 9a 18 65 bc cd 3b 8b 3c b2 ab 2f bc ed 27 8d bc
       -0.013982916 0.016996289 -0.010722088 -0.017230952
000260 81 4a de 3c 42 f3 32 bc 30 f0 bb 3c 96 2a a1 bc
       0.027135136 -0.010922255 0.022941679 -0.019673627
000270 18 b5 1e 3c 13 1a 17 bc 96 a6 78 3b e3 ac f4 3b
       0.009686731 -0.009222525 0.003794109 0.0074668988
000280 b0 89 ae 3b 8c f0 6a 3c d6 c1 76 bc 8f 82 39 bc
       0.005326472 0.014339577 -0.0150608625 -0.0113226315
000290 07 8d 9f bc 25 37 90 bc 03 fb f4 3c 2f e7 cb bb
       -0.019476427 -0.01760442 0.029904848 -0.0062226276
0002a0 b8 a5 b0 3c 9b b3 09 bc c6 e3 a9 3c 5f 4d aa 3c
       0.021563396 -0.008404638 0.020738494 0.020788847
0002b0 ce 6f 18 3c 91 4f a8 bc 9a b1 b5 3b 14 35 80 bc
       0.009304 -0.020545753 0.0055448534 -0.01565031
0002c0 cb 2d 77 bb cf 5b 37 3b c4 46 9a bc 0d e3 be 3c
       -0.0037716504 0.0027978306 -0.018832572 0.023301626
0002d0 02 cd fc bb 32 4b 85 3c b9 70 40 3c 29 80 1c 3c
       -0.0077148685 0.016271207 0.011745625 0.00955204
0002e0 78 88 94 3c d5 76 36 bc 42 0e 07 bc fb 5d bf 3c
       0.01813148 -0.01113673 -0.008243145 0.023360243
0002f0 f4 ac 5b bb 1b e8 24 3c f6 b0 6e bc 0e fb ea bb
       -0.0033519836 0.010065104 -0.014568558 -0.0071710413
000300 0f c0 aa bc 05 2e ae bc b9 b2 c3 3c 04 02 c8 3c
       -0.020843534 -0.021262178 0.023888933 0.024415024
000310 35 49 49 3c 72 8b 5b 3a d0 68 b6 3a b6 49 3b 3c
       0.01228552 0.0008374966 0.0013916735 0.011431148
000320 2b 39 bd 3c 0c 7f cb 3c ac 83 42 3b ad 07 42 bb
       0.023098549 0.024840854 0.0029680533 -0.0029606626
000330 50 ac 9b 3c 76 29 aa bc 75 62 86 3c d9 84 ca ba
       0.019003063 -0.020771723 0.01640437 -0.0015450969
000340 a6 5a 9c bb 28 b7 b0 3c 7e 72 63 3b c6 df ad 3b
       -0.0047715483 0.02157171 0.0034705694 0.005306217
000350 39 8f a7 3c e0 af 06 3c 58 c6 35 3c 56 8d 10 bc
       0.020454036 0.008220643 0.011094652 -0.00882276
000360 90 42 77 3c 72 14 f3 bc f4 db c9 bc 9e b5 2c 3c
       0.015091553 -0.029672835 -0.024641015 0.010541348
000370 ba fc d9 bb ed bd fa bb 63 cc f7 bb 06 ca c0 bc
       -0.006652442 -0.0076520354 -0.0075622066 -0.023533832
000380 c1 6a e0 3b 21 de f4 3b 22 f6 db 3a 25 6a 95 3c
       0.0068486636 0.007472769 0.0016781727 0.01823909
000390 d7 83 73 3a b1 14 91 bb 0f 1d 65 bc f1 7f 28 bd
       0.000928936 -0.0044275154 -0.013983979 -0.04113764
0003a0 4b be 06 bc 6c bc a0 3b 66 77 d7 3b e9 1f d3 3c
       -0.00822408 0.004905274 0.0065755127 0.025772052
0003b0 30 43 ab bb 44 35 9f 3c a8 6a 76 bc 18 7d e9 3b
       -0.0052265152 0.019434579 -0.015040077 0.007125508
0003c0 06 7c 2b bc bc b6 13 bb ba 96 1b bc 1b a6 90 bc
       -0.010466581 -0.0022539338 -0.009496385 -0.01765733
0003d0 72 a0 12 bc da 86 dd 3c 43 ca ee bc f0 75 16 3d
       -0.008949386 0.027041841 -0.02914918 0.036733568
0003e0 ab 09 81 3c 09 fd 27 3c dc 13 ab bc c4 17 1b bc
       0.01575168 0.010253199 -0.020883493 -0.009466115
0003f0 64 fa 72 3c eb 66 d8 39 20 62 79 bb ac 83 6e 3c
       0.014830206 0.0004127541 -0.0038052872 0.01455776

hidden1.bias f4 [128]
000000 35 e2 93 3c ee 69 19 bc 34 33 dd 3c 30 9c 1d 3c
       0.0180522 -0.0093636345 0.027001955 0.0096197575
000010 ed ff 4f 3c 8a b4 0e bc 11 98 8b bb f4 6e 65 3c
       0.012695295 -0.008710036 -0.004260071 0.014003504
000020 1d 22 76 bb fb 6a 4c 3c 9d d4 99 3c 80 5b 26 3b
       -0.0037556954 0.012476678 0.01877814 0.0025384128
000030 a2 e3 e8 3c 9d c2 da 3c bb b2 32 3c 67 1d 99 3c
       0.028428856 0.026704127 0.0109068705 0.018690778
000040 33 14 82 bc 0d e2 5a bc 6c 81 9e 3b 83 54 bf bb
       -0.015878772 -0.013359559 0.0048372056 -0.005838932
000050 b7 4a 0e bc b3 65 a8 bc a3 75 c3 3c 5e fe 83 bc
       -0.008684806 -0.020556306 0.023859804 -0.016112503
000060 4e cb 4d bc d6 8c 9f bc f3 91 8d 3c 13 1b 7c bc
       -0.012560679 -0.019476335 0.017281508 -0.015387314
000070 f4 be b3 3c 54 0a f9 3b 93 a1 7c bc 59 74 53 3c
       0.02194164 0.007600108 -0.015419382 0.012906157
000080 d5 7f 1e 3c c7 47 d7 3b e8 d7 80 3c ba 90 32 3c
       0.009674032 0.006569836 0.015727952 0.010898763
000090 ce fb 12 bb 59 32 22 bc 2c ce 8a 3c 1e d3 d0 3c
       -0.002242792 -0.009899699 0.016944014 0.025491294
0000a0 ca bf 83 3c 80 1f ee 39 d1 20 ab 3c e3 f5 2f 3c
       0.016082663 0.00045418367 0.020889672 0.010739776
0000b0 9f f2 74 3c 66 ba a0 bc df 7e 4f bc 44 ce f0 3b
       0.0149504235 -0.019620132 -0.012664526 0.0073488075
0000c0 15 f9 8d bc 43 39 d2 3c c8 0e 9f 3b 97 d0 6c bc
       -0.017330686 0.02566207 0.004854057 -0.014454029
0000d0 bd 12 24 bc fb e8 97 bc 36 07 17 bb 7b 7e 9b bc
       -0.010014233 -0.018543711 -0.002304507 -0.018981209
0000e0 9b 1e 17 3a 60 41 73 3c f3 e6 ef 38 6b 2c bd bc
       0.00057647534 0.01484713 0.00011439426 -0.02309247
0000f0 3d cf 2f 3c d2 90 de 3b a9 b0 5a 3c 64 16 4b bc
       0.010730562 0.0067921663 0.013347783 -0.012395475
000100 64 76 96 3c a9 c0 83 bc 6d d3 3d bc 57 0e 97 bc
       0.018367 -0.016083078 -0.011586052 -0.018439455
000110 9b 3d 60 ba 1e e7 c7 3c 25 69 76 bc 98 72 ab bb
       -0.0008554102 0.024402197 -0.015039717 -0.0052321665
000120 38 a2 9d 3c a5 61 59 bc a7 c0 4f 3c ae 5b 57 3c
       0.019242391 -0.013267909 0.012680209 0.013144417
000130 5a 03 88 3c ff 80 81 3c e8 08 a6 bc fc 66 72 bc
       0.01660316 0.01580858 -0.020267919 -0.014795061
000140 78 cb 27 bc 25 93 cc bc ef f4 5f 3b 27 56 ad 3c
       -0.010241382 -0.024972508 0.0034173091 0.021159245
000150 0e d3 7e bc d8 ce 31 3b 5b 06 0d 3c ac 1c 87 3c
       -0.015553249 0.0027131345 0.008607472 0.016493164
000160 14 1b 7c bc ec 42 a0 bc 2d 4f 08 bc 0a 9a 37 3c
       -0.015387315 -0.01956316 -0.008319658 0.011206159
000170 0e c3 24 bc f7 c8 a2 bc ea c1 83 3b 0b e9 a8 bc
       -0.01005627 -0.019871218 0.004020919 -0.020618936
000180 e4 50 5d bc 42 d3 72 3c 71 01 99 3c 99 6b a3 3c
       -0.013508055 0.014820876 0.018677445 0.019948767
000190 40 b1 13 bc 06 d1 68 ba 33 4a 2c 3c 17 67 c3 bc
       -0.009014428 -0.00088812446 0.010515737 -0.023852868
0001a0 01 81 79 bc 15 6d 2f 3c b1 0b 8d bc f4 6a ae bb
       -0.015228511 0.0107071595 -0.017217489 -0.0053228084
0001b0 b0 d7 1c bb 59 bd 71 bb cd 39 08 3b c9 83 12 bc
       -0.002393227 -0.0036886542 0.0020786405 -0.008942553
0001c0 bb fc 35 bc 90 37 10 bb 12 19 3b bc c8 8d cd bb
       -0.011107619 -0.0022005774 -0.011419551 -0.006273005
0001d0 8c b4 87 3c db c5 df ba f2 93 07 3b 92 23 7e 3c
       0.016565584 -0.0017072515 0.0020687548 0.01551141
0001e0 42 1d ca 3c ba 4e b1 3c 15 e1 a5 3c fe d9 4d bc
       0.024672154 0.021643985 0.020248929 -0.01256418
0001f0 3c b0 9f 3c 45 25 96 3c 3f 29 e9 3b 39 a2 90 bc
       0.019493215 0.018328318 0.0071155126 -0.017655479

hidden2.weight f4 [34, 128]
000000 05 17 b2 bc 4a 8c a2 bd 4a b1 9e bc 82 32 a1 bd
       -0.021739492 -0.07936914 -0.019371647 -0.07870962
000010 34 1a 21 bc 07 ed 47 3d f9 36 64 3d 72 84 8a 3b
       -0.0098329075 0.04881003 0.05571649 0.0042272145
000020 1b bc 77 bd 54 22 17 3d f7 63 97 3d b3 9a 55 bd
       -0.060482126 0.036897972 0.07392114 -0.052149486
000030 aa e1 99 3d 34 30 a0 bd 30 3d 57 bd dd 3f f5 3a
       0.07513745 -0.07821694 -0.052548587 0.0018711049
000040 8b bf 3d bd 15 3c 9e bd 76 97 1c 3d 0e 82 5b 3d
       -0.046325248 -0.077263035 0.038230382 0.053590827
000050 99 45 97 3d 7e 28 57 bd 02 1a 95 bd 68 ad 0b bd
       0.073863216 -0.05252885 -0.07280351 -0.03410092
000060 91 13 b1 bc ca a5 71 3d 1b 3c ce 3c c8 2f b1 bd
       -0.021615775 0.058996 0.025175145 -0.08651692
000070 3a 38 48 3c 10 53 89 3d c5 90 33 bd 0e e3 1b 3d
       0.012220437 0.06705296 -0.043839235 0.038058333
000080 aa 0c e7 3c 18 30 0c 3d 23 bb 88 bc 47 60 54 3d
       0.02820428 0.034225553 -0.016690796 0.05184963
000090 2f 64 04 3d 44 83 67 3c 8b c2 87 bd d6 50 d0 bd
       0.032322105 0.014130417 -0.06628903 -0.10171668
0000a0 33 13 e2 3c 98 0e 0c bc 15 d2 55 bd 0a bf 13 bc
       0.027597046 -0.008548401 -0.052202303 -0.009017715
0000b0 5e ec 76 3d 7e 27 46 3d f3 0d 4b bd ef 97 b9 bd
       0.06028401 0.048377506 -0.04957385 -0.09062182
0000c0 ee 6f 14 bd b2 d6 ab bd c3 a7 56 bc 89 3b d6 3c
       -0.036239557 -0.08390559 -0.013101521 0.026151435
0000d0 a5 15 28 bd 18 4e 0c 3d ad 5e 75 bd b4 61 f1 3b
       -0.041036267 0.034254164 -0.059904743 0.0073663834
0000e0 d8 94 68 bd aa ff 1f bd 62 95 cf 3c 0c 65 3e 3c
       -0.056782573 -0.03906218 0.025339786 0.011620771
0000f0 7e 1e d0 bc 2e 73 ab bc 10 d9 41 bb 1b d2 a5 bc
       -0.025405165 -0.020928945 -0.0029578842 -0.020241788
000100 10 50 b7 bc f7 d4 0a 3d a3 e4 56 3d 64 de 10 bd
       -0.022377044 0.033894505 0.05246414 -0.03536834
000110 b9 1f 80 3d ca 90 c2 bd 96 30 6c bd 25 95 c4 bd
       0.062560506 -0.095002726 -0.057663523 -0.095987596
000120 31 83 2a 3c 87 af 18 bd f5 e4 8f 3d 43 b4 a4 3d
       0.010407255 -0.03727677 0.07026092 0.08042195
000130 91 7c 7d bc 38 0b 45 bd 90 67 53 bd ca 57 f2 bc
       -0.0154715935 -0.048106402 -0.051612437 -0.029582877
000140 82 b8 4d bc 8a 2e 3f 3d 29 72 98 bd 85 7e b3 bc
       -0.012556197 0.046675242 -0.07443649 -0.021910915
000150 67 08 26 3b 95 c5 35 3d 58 21 3b bd e1 4c 56 3d
       0.0025334598 0.044377882 -0.045686096 0.05231941
000160 68 cd be bd 4a 95 e9 3c 8e e5 ba 3c c2 01 dd 3c
       -0.09316522 0.02851357 0.022814538 0.026978377
000170 1c 19 2f 3d df 88 aa bd a3 9b b8 3b 14 77 95 bc
       0.042748556 -0.08326887 0.0056337877 -0.018245257
000180 9d 95 9f 3d 2a c4 08 3b f6 b2 38 3d ed b7 6b 3d
       0.07792208 0.0020868876 0.045092545 0.057548452
000190 c2 bc 6a bd b8 19 ef 3c 22 e0 a8 bb bd c8 ad bd
       -0.05730892 0.029187068 -0.005153672 -0.084855534
0001a0 13 e6 11 3d 6b 11 30 bd bd 46 89 bd 80 95 ac ba
       0.035619806 -0.04298536 -0.067029454 -0.0013167113
0001b0 68 b3 34 bc b0 e3 46 bd a2 31 03 bd 8f 32 07 bc
       -0.011029102 -0.048556983 -0.032029755 -0.0082518
0001c0 6c 47 64 bc 98 0c b9 bc 76 7d 0e bd 1e 98 8d bd
       -0.013933044 -0.022589013 -0.034787618 -0.0691378
0001d0 32 49 7f 3d 5f 6d 7e 3d 80 50 83 3d cf 45 43 bd
       0.062325664 0.062116023 0.064118385 -0.047673997
0001e0 3b 93 8a 3d b4 cd 2b 3d 14 7f 75 bd b1 2d 8a 3d
       0.06766363 0.04194422 -0.059935644 0.06746996
0001f0 1d 1a 56 3d 10 db 3d 3c b9 ab 94 bd 32 0c ec 3c
       0.052270997 0.011587873 -0.07259316 0.028814409
000200 dd b3 ac 3d 40 dc 77 bd 11 08 93 bd cc ba 9d bd
       0.08432744 -0.06051278 -0.07179273 -0.07701644
000210 80 60 0f bd 73 3e 8e bd ff ae b7 bc a9 53 a9 3c
       -0.03500414 -0.06945505 -0.022422312 0.020669775
000220 57 ed 89 3d 2a 37 3c 3d 7c a7 96 3d 58 3f 41 3c
       0.06734722 0.045951046 0.07356164 0.0117948875
000230 e6 dd 6e 3d b3 70 0c bd 7d c2 ec 3c 90 d3 64 3d
       0.058317088 -0.034287166 0.028901333 0.055865824
000240 ae 29 aa bd d6 9c e5 bc 9c dd 81 bd 0c 11 a2 3d
       -0.08308731 -0.028028887 -0.06341097 0.07913408
000250 9f 48 1a bd 78 dd 5d 3c 51 4f a1 bd 69 56 c6 3d
       -0.037666913 0.013541572 -0.078764565 0.0968445
000260 5a d4 a6 bb 54 5e 9b 3d 5a 03 e9 3a 9a e4 b0 3c
       -0.0050912322 0.07586351 0.0017777488 0.02159338
000270 cf b0 8b bc 82 ea b4 bd 12 fe f4 bc ec 24 3f 3d
       -0.017052082 -0.08833791 -0.029906306 0.04666607
000280 b0 37 55 3d 17 13 bb bd 74 07 b7 3a 74 4d f2 bc
       0.05205506 -0.091345005 0.0013964013 -0.029577948
000290 c6 2f 4c 3d 84 2a 90 bd 42 9d 9f bd 3d 71 80 3b
       0.049850248 -0.07039359 -0.077936664 0.003919749
0002a0 69 f3 f9 bc a6 11 80 bd c1 4f 85 bc 73 ac 21 3d
       -0.030511575 -0.06253366 -0.016273381 0.0394711
0002b0 16 12 6a 3d 25 9a a5 bd 94 75 9b 3c c5 70 36 bd
       0.057146154 -0.08086041 0.018976964 -0.04454114
0002c0 d3 71 bf bd 22 37 0e bc 68 47 bd 3d e0 bb 0d 3d
       -0.09347882 -0.008680137 0.09242135 0.034603
0002d0 8f f6 14 3d e5 bc 94 3d 28 40 a2 3d 48 40 ab 3d
       0.03636795 0.07262591 0.07922393 0.0836187
0002e0 c4 b8 bd 3d cd 40 ad bd f5 91 7d bd 2f 70 15 bd
       0.09263757 -0.084596254 -0.061906774 -0.03648394
0002f0 df e3 7e 3d 8f 6e bf bd 7c 17 31 bd f9 e4 c4 bb
       0.062229034 -0.09347259 -0.043235287 -0.006008741
000300 e5 47 8a 3d d8 1b 20 3c 52 11 93 bc 5b eb c3 bd
       0.06751994 0.0097722635 -0.017952595 -0.09566375
000310 0c e0 75 bd ca 2f d6 bc 08 b9 07 bd c9 08 3b bd
       -0.06002812 -0.026145834 -0.033135444 -0.045662675
000320 14 f0 7f bc 3e 7f bb bd b4 1d 91 3d 52 12 02 bd
       -0.015621204 -0.09155129 0.070857435 -0.031755753
000330 1c 84 06 3d 9e a2 8d bd 11 b9 6d 3c ee 8a 23 3d
       0.032840833 -0.069157824 0.014509455 0.039927416
000340 50 13 5a bb 74 1f a7 bc f9 27 e2 3c 16 ee 83 bd
       -0.0033275671 -0.02040074 0.027606951 -0.06441896
000350 53 ac 99 bd d3 d6 64 bc 24 c6 8d 3d da 02 14 bd
       -0.07503571 -0.013967234 0.06922558 -0.036135532
000360 99 73 b7 bc e4 49 dd bc 67 38 63 bd 03 d4 9e 3d
       -0.022393988 -0.027012773 -0.05547371 0.07755282
000370 6e 34 49 3d 53 60 d1 3d b3 2a c8 3d 78 9a af 3d
       0.049122266 0.102234505 0.09773769 0.085743845
000380 76 c0 c8 bd dc 5e b1 bd e2 92 60 3d a9 6a 17 bd
       -0.09802334 -0.08660671 0.05482758 -0.036966953
000390 4f 9b c5 3c 1e 28 73 3c a8 e9 a5 bd 74 ea a9 3c
       0.024121908 0.014841108 -0.08101207 0.020741679
0003a0 19 f5 ad bd 46 f6 c2 bc 15 d1 bc bc 3d 73 8e 3d
       -0.08494014 -0.023799073 -0.023048917 0.06955574
0003b0 29 c4 a0 3d d1 39 8f bd 81 a5 86 bd 3d 13 9b 3d
       0.078499146 -0.069934495 -0.06574536 0.07572029
0003c0 59 8f 3d bb a5 17 a1 bd 13 3b 5e bd 50 8f 5b bd
       -0.0028924553 -0.07865838 -0.054255556 -0.05360347
0003d0 0b ab a4 3a 5a 15 17 bd 51 7f 43 3d da 3e 7a 3d
       0.0012563182 -0.036885597 0.04772884 0.061095096
0003e0 da 8e d2 3b 5b 09 38 3d d5 fb 15 3c 26 5a 50 3c
       0.0064257206 0.044930797 0.00915428 0.012716806
0003f0 b6 34 85 3d 38 ed 06 3d d5 31 c1 bd 96 af 6d bd
       0.065041944 0.032941073 -0.09433333 -0.05802878

hidden2.bias f4 [34]
000000 cd fb 8d bd 38 87 55 3d 00 1a 92 3d 08 ec 9e 3d
       -0.06932793 0.052130908 0.07133865 0.07759863
000010 0d 66 42 b9 4e 2d 40 3d 76 75 2e bc b0 7e ba bd
       -0.00018539299 0.046918206 -0.010648122 -0.09106195
000020 49 1e 74 bd b2 40 53 bc a8 b8 97 3c 49 cb 85 bd
       -0.059599195 -0.0128938425 0.018520668 -0.06532914
000030 8e bb 81 3d 0c 48 92 bc 0a d9 52 bc 7a 6a f7 bc
       0.06334601 -0.01785662 -0.012869129 -0.03020214
000040 72 f2 93 3d 7d 11 8f 3c 56 9e 66 bd 64 48 ac bd
       0.07223977 0.017464394 -0.056303345 -0.08412245
000050 58 20 94 bd ec 40 92 ba 52 82 a5 3d 35 6b c8 3c
       -0.072327316 -0.0011158264 0.08081497 0.024465183
000060 43 ab 99 3c 37 51 aa 3a 37 0c a4 3c 18 d7 b0 bc
       0.018758422 0.0012994175 0.020025356 -0.02158694
000070 b7 9a e9 bc 98 ca 90 3c f5 da e5 bc 2b b4 9f 3d
       -0.028516157 0.01767473 -0.028058508 0.07798036
000080 87 0d 15 3c 57 f8 56 bd
       0.009097463 -0.05248293
