Model/output_dir/1DCNN_0728_no_lr_2.pt (torch_old, 847600 bytes, 6 tensors)

conv.weight f4 [32, 1, 1, 71]
-0.10415283 -0.11640762 0.038062047 0.11966121 0.038698293 0.0037527084 0.019218002 -0.091060154
-0.033470538 0.05296001 -0.15378611 0.032554694 0.060408175 0.16261975 0.021768218 -0.18276028
-0.05809461 0.07838911 0.14881332 0.0074518356 -0.2017742 0.07953312 -0.07323865 0.16119996
-0.037365936 -0.0731928 0.09752512 0.22443695 -0.1274624 0.17363544 0.07075017 -0.105871595
-0.10473176 0.12457642 0.11344055 0.11986701 0.07615843 -0.010322451 -0.12957595 0.12719733
0.14485456 -0.040386852 -0.061428856 0.14142162 0.012485855 -0.035370667 -0.048099708 0.03784411
-0.074919514 -0.1199586 -0.008850409 -0.122182116 0.11213907 -0.18554908 -0.13310343 -0.100243054
-0.006228998 -0.042232435 -0.02128262 0.17089373 0.16847686 -0.08339881 -0.11090905 0.027532501
-0.008927753 -0.04223635 0.086804934 0.032203376 -0.09242254 0.18999305 0.07991615 -0.057394933
-0.13563259 0.2737637 0.12395554 -0.12757915 0.047380045 -0.17553999 0.02008239 0.061581876
-0.041712172 -0.09002091 0.14585187 -0.05490837 0.09513957 0.06946453 -0.1435604 0.1886754
-0.028966928 0.11875976 -0.14064553 0.030262649 0.038616423 -0.0728972 -0.13457632 -0.017598245
-0.16734776 0.03760954 0.10882095 -0.0034881427 -0.010980324 -0.11162551 -0.056183897 0.14836076
-0.0028933438 -0.10701339 -0.08209572 0.006900168 -0.043846168 -0.114613265 -0.16042326 0.06891832
0.25774637 -0.023753613 -0.11953594 0.009738605 0.079601765 -0.056885332 -0.04099292 0.09430275
0.07076624 -0.03865482 0.035017863 0.03839518 0.13013604 0.122854985 -0.03677597 -0.080210194
0.15613627 0.071690716 0.10385986 0.102258354 0.076165676 -0.011621693 0.12322038 0.12626642
-0.071394905 0.005966711 -0.03897555 -0.15173605 -0.03709437 0.09979153 0.066979505 0.12906109
0.053776044 -0.076960295 -0.06571825 0.16833605 0.12495679 -0.020187289 0.080955155 -0.039625812
-0.14695682 0.013547168 -0.102995075 0.13374604 -0.12285435 0.083253615 -0.027546102 0.09250328
-0.0972062 -0.1984509 -0.14356127 0.0710351 -0.050497558 -0.088980064 -0.10692602 0.10825682
-0.19254793 0.20952493 -0.105321065 0.152909 -0.0050527877 -0.032219887 -0.07942106 -0.11426359
-0.19184011 -0.0052097114 -0.029365033 -0.14219305 0.1757238 0.06857507 -0.085130684 -0.039586008
0.08181618 -0.17272514 0.17944661 0.052080784 -0.06493665 0.2410822 -0.037421934 -0.18381009
0.00021672976 -0.05641916 -0.08865367 0.051868748 -0.19589993 0.051509198 -0.02462926 0.18356164
0.2005561 -0.02699334 0.06140877 0.2278905 0.20597373 -0.05050453 -0.11314836 -0.016527923
0.13949744 0.17708528 0.018509902 -0.11736589 0.043847486 0.18176802 0.07678495 0.047864687
0.0706531 0.05940898 -0.113171004 0.060980435 0.022324553 0.28248703 -0.23588373 -0.103238076
-0.08917199 -0.18799162 -0.094780385 -0.0967051 -0.07568821 0.09790446 0.008000799 0.14091367
-0.13804416 0.025477815 0.02646704 0.049999643 -0.062771566 0.11397423 -0.065241605 0.18229002
0.11355919 0.05116283 -0.16376002 -0.09123479 0.12112665 0.1188967 0.15771918 -0.19682984
0.12907198 -0.027663609 -0.022687968 -0.07442121 -0.09879279 -0.179662 -0.053212196 0.08925865
00000000: 144e d5bd 1e67 eebd f3e6 1b3d f010 f53d
00000010: 1a82 1e3d 00f0 753b 126f 9d3c bf7d babd
00000020: 6718 09bd 98ec 583d 1b7a 1dbe 1258 053d
00000030: 906e 773d cb85 263e 4353 b23c 8325 3bbe
00000040: 9df4 6dbd 788a a03d 8562 183e 872e f43b
00000050: e59d 4ebe 43e2 a23d 25fe 95bd 9a11 253e
00000060: 060d 19bd 1be6 95bd 40bb c73d cdd2 653e
00000070: 8185 02be 7dcd 313e 77e5 903d 35d3 d8bd
00000080: 9b7d d6bd ec21 ff3d 8553 e83d d67c f53d
00000090: f3f8 9b3d 7f1f 29bc 8faf 04be 0440 023e
000000a0: c154 143e af6c 25bd d39c 7bbd d4d0 103e
000000b0: 7991 4c3c d5e0 10bd 3304 45bd 6d02 1b3d
000000c0: 676f 99bd dbac f5bd 4e01 11bc 9e3a fabd
000000d0: 2ba9 e53d 9400 3ebe 444c 08be 3b4c cdbd
000000e0: 9f1c ccbb ebfb 2cbd e458 aebc c4fe 2e3e
000000f0: 3385 2c3e ffcc aabd 4924 e3bd d78b e13c
00000100: b645 12bc 0600 2dbd c9c6 b13d b0e7 033d
00000110: 0748 bdbd 8a8d 423e 14ab a33d f316 6bbd
00000120: 45e3 0abe c12a 8c3e 67dc fd3d 1ca4 02be
00000130: 9411 423d c1c0 33be d383 a43c 473d 7c3d
00000140: 62da 2abd e25c b8bd 315a 153e 99e7 60bd
00000150: 89d8 c23d 6b43 8e3d 7f01 13be 2034 413e
00000160: 0d4c edbc 5138 f33d 6205 10be 60e9 f73c
00000170: 412c 1e3d 214b 95bd 60ce 09be 322a 90bc
00000180: 365d 2bbe 760c 1a3d 85dd de3d 5399 64bb
00000190: d1e6 33bc ea9b e4bd 1621 66bd e2eb 173e
000001a0: 419e 3dbb d629 dbbd cd21 a8bd ce1a e23b
000001b0: 0a98 33bd 5cba eabd ff45 24be 0c25 8d3d
000001c0: 55f7 833e f096 c2bc 42cf f4bd ab8e 1f3c
000001d0: 4006 a33d 9800 69bd 31e8 27bd cd21 c13d
000001e0: e4ed 903d 8454 1ebd e46e 0f3d 4444 1d3d
000001f0: 6242 053e 659b fb3d 66a2 16bd 3e45 a4bd
00000200: 30e2 1f3e 95d2 923d 7ab4 d43d d46c d13d
00000210: c0fc 9b3d ea68 3ebc f75a fc3d fc4b 013e
00000220: 7e37 92bd 6684 c33b d4a4 1fbd b260 1bbe
00000230: 44f0 17bd 805f cc3d 8d2c 893d 9728 043e
00000240: 4544 5c3d 5c9d 9dbd 4a97 86bd 4960 2c3e
00000250: 58e9 ff3d d05f a5bc d1cb a53d ad4e 22bd
00000260: d97b 16be f1f4 5d3c 15ef d2bd b9f4 083e
00000270: 109b fbbd df80 aa3d 5da8 e1bc 5c72 bd3d
00000280: 0b14 c7bd b636 4bbe ba01 13be da7a 913d
00000290: 87d6 4ebd 2e3b b6bd 07fc dabd c0b5 dd3d
000002a0: 492b 45be b48d 563e 92b2 d7bd 2d94 1c3e
000002b0: db91 a5bb 00f9 03bd 82a7 a2bd 0703 eabd
000002c0: bc71 44be 3ab6 aabb f08e f0bc 0e9b 11be
000002d0: f1f0 333e 1671 8c3d ff58 aebd f024 22bd
000002e0: 3e8f a73d dcde 30be dac0 373e a952 553d
000002f0: 82fd 84bd 41de 763e be47 19bd b638 3cbe
00000300: f441 6339 c717 67bd 0e90 b5bd 5374 543d
00000310: fe99 48be 4ffb 523d 4dc3 c9bc 95f7 3b3e
00000320: 945e 4d3e 2321 ddbc c387 7b3d 215c 693e
00000330: c7ea 523e d7dd 4ebd 54ba e7bd 9165 87bc
00000340: 6bd8 0e3e d855 353e 14a2 973c 875d f0bd
00000350: 6c99 333d 6521 3a3e 6e41 9d3d c30d 443d
00000360: 93b2 903d d556 733d 33c6 e7bd 9fc6 793d
00000370: fbe1 b63c 24a2 903e 818b 71be 7c6e d3bd
00000380: ce9f b6bd e080 40be 381c c2bd 530d c6bd
00000390: 6c02 9bbd 2282 c83d c915 033c ac4b 103e
000003a0: 735b 0dbe dab6 d03c 68d1 d83c 6dcc 4c3d
000003b0: 618e 80bd 526b e93d 649d 85bd 3caa 3a3e
000003c0: b891 e83d 1e90 513d b5b0 27be 4ed9 babd
000003d0: 4011 f83d 1d80 f33d 2381 213e c38d 49be
000003e0: 722b 043e cb9e e2bc 1edc b9bc 266a 98bd
000003f0: e053 cabd 51f9 37be 08f5 59bd 3dcd b63d

conv.bias f4 [32]
0.06998417 -0.005846717 -0.11657167 -0.06513127 0.024316078 0.091287464 0.01720319 0.10700062
-0.028786538 -0.05346435 -0.13744585 0.108774416 -0.09844442 0.08138913 0.039256793 0.034998912
-0.099736094 0.03683887 0.08304844 0.08189302 0.14601888 -0.07229908 0.05447095 0.021745596
-0.017461894 0.028083025 0.11933537 -0.09041806 -0.026786886 0.012479385 -0.0335779 -0.04071872
00000000: dc53 8f3d d195 bfbb 21bd eebd 8b63 85bd
00000010: 8332 c73c ecf4 ba3d b4ed 8c3c 2423 db3d
00000020: bfd1 ebbc 6ffd 5abd 9bbe 0cbe 1fc5 de3d
00000030: 3a9d c9bd 58af a63d bbcb 203d 055b 0f3d
00000040: 7042 ccbd 5be4 163d 4d15 aa3d 87b7 a73d
00000050: f985 153e 8a11 94bd ee1c 5f3d d223 b23c
00000060: 3f0c 8fbc 5f0e e63c 1a66 f43d 1b2d b9bd
00000070: 2c70 dbbc 5676 4c3c fb88 09bd acc8 26bd

hidden1.weight f4 [128, 1600]
0.0049907076 0.01883864 -0.04394962 0.026121171 -0.028428933 -0.022170983 -0.013768979 0.030903982
0.08687685 0.0117845945 -0.011897389 -0.008674614 -0.0012111763 0.03373526 -0.015228212 -0.02439075
-0.023213547 -0.00701755 0.02261066 -0.012192177 0.024549175 -0.014965635 0.0016202354 -0.060386993
0.030562362 0.02330104 0.021501346 0.01911951 0.022981597 0.029945506 -0.006239609 -0.012639202
-0.034328785 -0.037230108 -0.04068552 -0.0034697861 -0.0067593167 0.06641782 0.034455933 -0.0604722
0.005821213 -0.04813033 0.08167739 0.014018569 0.038257994 0.027977124 -0.048529804 -0.014410761
0.03660581 0.002683732 -0.0026929658 -0.104364954 -0.0004928099 0.0055733677 -0.005995935 0.01881913
0.038198825 0.046101373 0.06150368 0.09399094 -0.037796896 0.009246265 0.014569075 0.047424793
0.03705373 -0.016401254 -0.012210302 0.11994344 0.027125772 -0.035459563 -0.06428713 -0.0888433
0.069262326 0.0019819576 -0.08929438 -0.046040114 0.06530485 0.013029633 -0.024951436 -0.04258185
-0.012091383 0.05046148 0.07533564 -0.0006552919 -0.10337423 0.086414434 -0.021232026 0.015901033
-0.026598208 0.010684908 -0.016915988 0.039671123 0.03175782 -0.027016226 0.002640888 0.049581118
0.019341324 0.028779643 -0.100807235 -0.05445747 0.03372522 0.045490738 -0.016407548 -0.06593168
0.00024566997 -0.05778553 0.0026824512 -0.15231706 0.008796787 -0.041755218 0.05947504 0.020441081
-0.041696925 -0.086710945 0.076519705 -0.027611762 0.06303977 -0.071989335 0.027987927 0.001790329
0.023970578 -0.021806078 0.032120917 -0.028762177 0.028320268 -0.03787483 -0.04013924 -0.1057674
0.068109825 0.039216615 0.011914183 -0.012894871 0.051695324 -0.08217804 -0.032262858 -0.048861265
-0.000755084 0.052263707 -0.05380229 -0.053322304 0.016095687 -0.00948075 -0.012816377 0.038656663
-0.022566449 0.042728703 -0.021244524 0.10242376 0.014190345 0.021045765 0.034856327 0.012333447
0.0033629653 0.0032051327 0.02634215 -0.040548187 0.01008479 0.003666743 -0.06016515 0.009181743
-0.033043757 0.06300524 -0.023272786 0.040528335 0.017288757 0.030105066 0.009712748 0.043964848
-0.06440734 0.08501821 0.006781323 0.016590469 -0.010847444 -0.013383071 0.009476281 0.024861
0.009970744 0.031620197 -0.056246083 -0.034005836 0.010488634 0.001682955 -0.01508759 0.001876954
0.022011949 0.05244713 -0.010475701 0.02260131 -0.0026186032 -0.010635395 -0.036734182 0.029883554
-0.027595116 0.01817729 -0.01948089 -0.07129295 -0.04013643 0.059187338 -0.041677445 0.0309047
0.010209828 0.029401489 0.017579155 0.012252156 0.020817943 0.06456134 0.003125922 0.003008076
0.04203904 0.028000435 -0.010874017 -0.084421694 0.012346564 0.02893135 -0.0090106 0.059479903
-0.05922654 -0.011796954 -0.092453115 -0.00034050312 0.030040093 0.064317755 0.030189617 0.029150557
0.020542845 -0.001332108 -0.010034261 -0.050006706 0.03431481 0.0069069597 -0.0035917815 0.018945346
0.029639214 -0.018217856 -0.050346907 0.0017937787 0.026079476 -0.018324986 -0.013744461 0.09216649
0.01155476 -0.027426962 -0.0241668 -0.024778584 0.020236438 0.03283854 -0.039616246 -0.048026472
0.108374506 0.0033963544 -0.02029834 0.015434571 0.023940556 -0.032499686 -0.01973188 0.042030737
00000000: 1789 a33b 7e53 9a3c 8404 34bd 11fc d53c
00000010: cbe3 e8bc ec9f b5bc 4997 61bc 592a fd3c
00000020: 7dec b13d 2c14 413c 44ed 42bc f81f 0ebc
00000030: 55c0 9eba fc2d 0a3d c07f 79bc 1ccf c7bc
00000040: 562a bebc 7af3 e5bb fe39 b93c b2c1 47bc
00000050: 5a1b c93c 6c32 75bc 145e d43a 5a58 77bd
00000060: eb5d fa3c d3e1 be3c 9723 b03c 85a0 9c3c
00000070: e743 bc3c 4750 f53c a275 ccbb a814 4fbc
00000080: 579c 0cbd 997e 18bd dca5 26bd 5a65 63bb
00000090: 427d ddbb 1106 883d aa21 0d3d b3b1 77bd
000000a0: e0bf be3b 4f24 45bd 7a46 a73d 24ae 653c
000000b0: 6ab4 1c3d 4830 e53c 30c7 46bd 1d1b 6cbc
000000c0: f9ef 153d 8de1 2f3b 787c 30bb 4bbd d5bd
000000d0: ea2f 01ba cca0 b63b 8c79 c4bb 932a 9a3c
000000e0: 5f76 1c3d cbd4 3c3d 48eb 7b3d 527e c03d
000000f0: ebd0 1abd a57d 173c 21b3 6e3c 8040 423d
00000100: a7c5 173d ec5b 86bc b80d 48bc e8a4 f53d
00000110: de36 de3c 0c3e 11bd f9a8 83bd 7af3 b5bd
00000120: 68d9 8d3d bbe3 013b f9df b6bd 8f94 3cbd
00000130: 8dbe 853d 3e7a 553c f466 ccbc 4e6a 2ebd
00000140: f01a 46bc b2b0 4e3d 9249 9a3d e5c7 2bba
00000150: deb5 d3bd 0dfa b03d c9ee adbc e242 823c
00000160: 7ce4 d9bc c10f 2f3c 6693 8abc 307e 223d
00000170: 7d14 023d 2251 ddbc c012 2d3b 9215 4b3d
00000180: b271 9e3c 49c3 eb3c 0674 cebd cc0e 5fbd
00000190: 7523 0a3d 7f54 3a3d 1f69 86bc 3007 87bd
000001a0: 44cd 8039 85b0 6cbd 10cc 2f3b 01f9 1bbe
000001b0: 6620 103c 8507 2bbd 199c 733d 0e74 a73c
000001c0: 65ca 2abd 8295 b1bd 5db6 9c3d 1032 e2bc
000001d0: ff1a 813d 256f 93bd f046 e53c 79a9 ea3a
000001e0: f25d c43c a9a2 b2bc 3991 033d a89e ebbc
000001f0: e8ff e73c a322 1bbd 0b69 24bd 949c d8bd
00000200: 2a7d 8b3d 9aa1 203d b533 433c 0245 53bc
00000210: 7abe 533d f64c a8bd 0f26 04bd c022 48bd
00000220: d4f0 45ba 7812 563d ca5f 5cbd 7d68 5abd
00000230: 1adb 833c 2655 1bbc c8fb 51bc 7356 1e3d
00000240: 46dd b8bc 4b04 2f3d ff08 aebc 8cc3 d13d
00000250: 9f7e 683c 2b68 ac3c 82c5 0e3d 3a12 4a3c
00000260: 3265 5c3b 340d 523b 7ecb d73c db15 26bd
00000270: ad3a 253c bd4d 703b bb6f 76bd 056f 163c
00000280: e458 07bd e408 813d 92a6 bebc 0a01 263d
00000290: 27a1 8d3c e69e f63c 3822 1f3c 7c14 343d
000002a0: ffe7 83bd 071e ae3d dc35 de3b bce8 873c
000002b0: 7ab9 31bc ab44 5bbc 6742 1b3c 4ca9 cb3c
000002c0: 555c 233c 2e84 013d 4b62 66bd b449 0bbd
000002d0: 85d8 2b3c 9996 dc3a f031 77bc 2004 f63a
000002e0: 6752 b43c cdd2 563d 46a2 2bbc 6226 b93c
000002f0: df9c 2bbb 1440 2ebc 9576 16bd 5bce f43c
00000300: 270f e2bc 8ae8 943c 6396 9fbc 0a02 92bd
00000310: 1966 24bd 6c6e 723d f8b5 2abd da2b fd3c
00000320: 1f47 273c 64db f03c 2902 903c 44bd 483c
00000330: 648a aa3c bc38 843d 45dc 4c3b 2423 453b
00000340: 2131 2c3d 2b61 e53c ef28 32bc 48e5 acbd
00000350: 3e49 4a3c 7001 ed3c 32a1 13bc 33a1 733d
00000360: 8797 72bd 0348 41bc 0f58 bdbd 8e85 b2b9
00000370: a416 f63c 07b9 833d 3750 f73c 26cd ee3c
00000380: 7849 a83c 219a aeba be66 24bc d5d3 4cbd
00000390: b08d 0c3d c753 e23b 1864 6bbb 4533 9b3c
000003a0: f0cd f23c 9d3d 95bc 8f38 4ebd 3a1d eb3a
000003b0: a0a4 d53c 481e 96bc 7330 61bc c9c1 bc3d
000003c0: 2d50 3d3c 82ae e0bc 74f9 c5bc 75fc cabc
000003d0: e3c6 a53c b481 063d a544 22bd 68b7 44bd
000003e0: 74f3 dd3d 5f95 5e3b b448 a6bc 48e1 7c3c
000003f0: fc1e c43c 641e 05bd c0a4 a1bc 6c28 2c3d

hidden1.bias f4 [128]
0.0039678337 0.017442413 -0.013913072 -0.014160404 -0.0040778713 0.007996556 -0.0148098525 -0.02097498
-0.0018480427 0.0063748006 0.013677792 0.019042676 -0.02135773 -0.004517883 0.007813435 -0.013591053
0.0015465005 0.023521299 0.0139669925 0.006753542 -0.026758377 -0.0092573585 -0.0021524546 0.029114246
-0.023164032 0.0043825493 0.005397356 0.013138194 -0.02363434 -0.0036413912 -0.026699437 -0.012112811
-0.016772375 0.017218364 -0.01282021 -0.001070116 0.012022502 0.0053012446 0.0017599633 -0.018041207
-0.007967526 -0.004058766 -0.019788153 -0.027629241 -0.020049257 -0.025182292 -0.013099777 0.024214802
-0.0077787926 -0.014287706 -0.014008912 -0.0074308505 -0.00885665 -0.027179182 0.028269608 -0.019413507
2.2511414e-05 0.007407575 -0.008433348 0.017919827 0.015027744 -0.0054279356 0.008767355 0.015136408
-0.0006047418 -0.010266446 -0.0017876328 0.0059014014 -0.009423655 -0.009164818 0.0040361905 0.0043124477
0.010883751 0.014036969 -0.02162069 0.0060668876 0.0044057653 -0.023578174 -0.021887923 -0.015739543
0.018179271 -0.00966001 0.004629987 0.008549153 0.017412653 0.008008849 -0.016911702 0.008298072
-0.030679798 -0.020650154 -0.012959455 0.024590971 -0.0075781397 -0.011441136 -0.004823306 0.018120315
0.01775532 0.004941173 0.014213735 -0.014967218 0.0055958247 0.002938418 0.005744068 0.02403505
-0.027427625 0.012852416 0.025418717 -0.004622243 -0.01167715 0.010463694 0.018107621 0.027723223
0.015056154 0.018748693 0.014463123 -0.00023320517 -0.012511155 -0.028287526 0.0028564627 0.017503913
-0.027092908 0.0011557708 -0.0014655225 -0.006934688 0.016446106 0.007099812 -0.025107153 0.01814643
00000000: 9a04 823b 64e3 8e3c a7f3 63bc 0a01 68bc
00000010: aa9f 85bb fd03 033c 06a5 72bc b9d3 abbc
00000020: 063a f2ba b4e3 d03b d118 603c 63ff 9b3c
00000030: 68f6 aebc c00a 94bb ec03 003c 02ad 5ebc
00000040: f2b3 ca3a bdaf c03c d0d5 643c d14c dd3b
00000050: 6234 dbbc 2dac 17bc 3210 0dbb 0081 ee3c
00000060: 7fc2 bdbc 7d9b 8f3b 4edc b03b 9441 573c
00000070: ce9c c1bc 68a4 6ebb c7b8 dabc d074 46bc
00000080: 3866 89bc 870d 8d3c dc0b 52bc 2243 8cba
00000090: 07fa 443c 10b6 ad3b 92ae e63a 27cb 93bc
000000a0: 3a8a 02bc 66ff 84bb c41a a2bc b856 e2bc
000000b0: 573e a4bc 184b cebc 72a0 56bc 1f5e c63c
000000c0: 3ee5 febb fc16 6abc a385 65bc 7e7e f3bb
000000d0: 7c1b 11bc e0a6 debc aa95 e73c 1309 9fbc
000000e0: e5d6 bc37 3ebb f23b 062c 0abc 9acc 923c
000000f0: ed36 763c d3dc b1bb f4a4 0f3c b2fe 773c
00000100: 8987 1eba 9834 28bc 014f eaba 8b60 c13b
00000110: ad65 1abc 0828 16bc 0542 843b 6f4f 8d3b
00000120: c351 323c 51fb 653c e01d b1bc becc c63b
00000130: 3d5e 903b 0427 c1bc 4d4e b3bc 37f0 80bc
00000140: b2ec 943c 0545 1ebc 25b7 973b bf11 0c3c
00000150: fba4 8e3c 8c37 033c 698a 8abc a3f4 073c
00000160: 3354 fbbc 832a a9bc e553 54bc 0173 c93c
00000170: 0b52 f8bb 9a73 3bbc d30c 9ebb 0e71 943c
00000180: 9b73 913c 90e9 a13b bae0 683c 1039 75bc
00000190: 2e5d b73b 7992 403b bc38 bc3b 27e5 c43c
000001a0: e6af e0bc f192 523c ea3a d03c 2f76 97bb
000001b0: 8451 3fbc ea6f 2b3c 6f56 943c d01b e33c
000001c0: 16ae 763c dc96 993c bcf6 6c3c 8988 74b9
000001d0: 96fb 4cbc 3ebb e7bc 7e33 3b3b 5e64 8f3c
000001e0: f2f1 ddbc 3c7d 973a c616 c0ba 613c e3bb
000001f0: fcb9 863c 8aa5 e83b 84ad cdbc d2a7 943c

hidden2.weight f4 [34, 128]
-0.003695785 0.034384366 -0.0305702 0.05725065 0.050985724 -0.101850666 -0.06775152 -0.072256655
-0.013944701 0.008700226 0.07498791 0.042416945 -0.06483889 -0.065500334 0.056534775 -0.06584111
0.08408871 0.11004025 0.054203097 -0.026412759 -0.070328765 -0.03393597 0.032650646 -0.08156476
0.0797729 -0.090578176 -0.14323215 0.029831024 0.003975109 0.0117175635 -0.013129244 0.05629032
0.07393383 0.0385238 0.045475066 -0.05978775 0.08071278 0.06651806 0.0035448337 -0.106678285
-0.0382514 0.098594375 -0.08566501 0.04664091 0.09025676 -0.018073412 0.06525665 -0.06107487
0.07395411 0.07582292 -0.024011193 -0.044505183 0.09851716 0.044743553 0.09132336 -0.077002145
-0.012178591 -0.0020612904 0.07786045 0.03158419 -0.05005192 -0.00859343 -0.0250582 0.04855431
0.029350594 -0.0010649114 0.08385967 -0.022746585 -0.05509407 0.011032346 0.033076737 -0.00759688
0.010222683 0.044295307 0.054717466 0.08288655 -0.07386054 0.08582154 -0.0147367725 -0.030738134
0.106619686 0.07917726 -0.030630186 -0.07062543 0.03046754 -0.08824436 0.33190224 -0.117742985
-0.021779578 -0.043849237 -0.057066537 -0.024013316 0.015563238 -0.027915519 0.07238556 0.08072545
0.072295204 0.06540045 -0.041108996 -0.069511645 0.002233896 -0.00818093 -0.06579182 0.09409224
-0.010539126 -0.15624857 0.010292406 0.026153011 0.028204463 0.003204442 0.07779357 -0.08907001
0.049919367 -0.054131232 -0.05553173 -0.15697058 -0.013862286 -0.012084731 -0.09468068 -0.018086292
0.10497459 0.07999141 0.10971125 0.11325747 -0.14435919 -0.044441037 -0.07256266 -0.046391886
-0.07481063 -0.070163295 0.06630991 0.026937133 -0.02311945 0.04179069 -0.13115315 -0.0070899627
-0.106156126 -0.028127765 0.037515383 0.012381322 -0.03596512 -0.06017927 -0.115692094 0.06594389
0.05173578 0.057618875 -0.117719516 0.0778914 -0.04155273 0.09663725 -0.042369604 0.10635125
0.039232027 -0.07018283 0.047555707 -0.066614345 0.043280147 -0.1428323 0.062087964 0.072883055
0.11506508 -0.19791374 0.06957501 -0.06908341 -0.061475426 0.12018006 -0.11022064 0.12137486
-0.07907431 0.10997325 -0.048635565 0.008293281 -0.009733447 -0.037008956 0.025805118 -0.056304194
-0.0863739 0.055689037 -0.015882071 0.055389974 0.07581074 -0.04777853 0.11055514 0.06220613
-0.05055873 -0.073835276 0.044764865 -0.007820438 0.045279488 0.06479789 0.07190312 -0.07485117
-0.009277444 0.021499455 0.10908787 -0.06811612 -0.06546224 0.10028789 0.098327465 0.09287737
-0.046650488 0.052699696 -0.031134157 -0.17261247 -0.052622918 -0.052919418 -0.008989295 -0.08888979
-0.17012696 0.061729927 0.04186771 -0.13139167 0.04859149 -0.069579475 -0.088602394 0.09721733
0.065438926 -0.05148027 -0.06735733 0.069501825 0.07381498 -0.07511698 -0.128527 0.014477108
-0.05886602 -0.10849581 -0.057459567 0.087594464 -0.05004823 -0.07944174 -0.02723568 -0.100977235
0.043549765 0.10529029 0.09026258 0.043013513 0.04719171 0.06614344 -0.013489137 -0.0457038
0.08184682 0.026488742 0.09288939 0.09219515 -0.043650463 -0.087001875 0.03155147 -0.020900093
0.04262258 -0.04079519 -0.10900498 0.10395593 0.099018335 0.11485885 0.03600627 0.0005497133
00000000: fc34 72bb 9fd6 0c3d 5b6e fabc a87f 6a3d
00000010: 68d6 503d 1597 d0bd 4fc1 8abd 4cfb 93bd
00000020: 5178 64bc 658b 0e3c 4393 993d 64bd 2d3d
00000030: 41ca 84bd 0a25 86bd 0291 673d b4d7 86bd
00000040: b436 ac3d c85c e13d 1104 5e3d 925f d8bc
00000050: 8708 90bd 7200 0bbd afbc 053d 6d0b a7bd
00000060: f95f a33d 0d81 b9bd 73ab 12be 3160 f43c
00000070: a241 823b 06fb 3f3c 0a1c 57bc ae90 663d
00000080: 9f6a 973d 22cb 1d3d 1044 3a3d 00e4 74bd
00000090: be4c a53d 9f3a 883d 7150 683b 257a dabd
000000a0: 80ad 1cbd d9eb c93d 2371 afbd 8a0a 3f3d
000000b0: 89d8 b83d b10e 94bc 47a5 853d a529 7abd
000000c0: 4175 973d 0c49 9b3d 1fb3 c4bc 114b 36bd
000000d0: 5dc3 c93d 0445 373d be07 bb3d 4db3 9dbd
000000e0: b788 47bc b716 07bb 4d75 9f3d 6c5e 013d
000000f0: 3e03 4dbd 75cb 0cbc db46 cdbc e2e0 463d
00000100: a870 f03c 7f94 8bba 9ebe ab3d 0c57 babc
00000110: 52aa 61bd 03c1 343c 797b 073d 40ef f8bb
00000120: 0a7d 273c ff6e 353d 6c1f 603d 6cc0 a93d
00000130: 3244 97bd 34c3 af3d 8172 71bc 8ace fbbc
00000140: 6c5b da3d b027 a23d 28ec fabc 11a4 90bd
00000150: 1097 f93c 76b9 b4bd 17ef a93e 3c23 f1bd
00000160: 166b b2bc 429b 33bd 9abe 69bd 93b7 c4bc
00000170: f4fc 7e3c 16af e4bc e13e 943d 6253 a53d
00000180: 820f 943d acf0 853d e861 28bd 1f5c 8ebd
00000190: 8e66 123b 4f09 06bc ddbd 86bd 6fb3 c03d
000001a0: 4cac 2cbc a0ff 1fbe 7ba1 283c d73e d63c
000001b0: 0c0d e73c 9e01 523b 3c52 9f3d 566a b6bd
000001c0: 4078 4c3d b6b8 5dbd 3d75 63bd e5bc 20be
000001d0: a41e 63bc 09ff 45bc f2e7 c1bd b429 94bc
000001e0: ebfc d63d 89d2 a33d 4bb0 e03d 88f3 e73d
000001f0: e5d2 13be ce07 36bd bb9b 94bd 6b05 3ebd
00000200: 5136 99bd c6b1 8fbd 7dcd 873d 43ab dc3c
00000210: 0065 bdbc b72c 2b3d 034d 06be eb52 e8bb
00000220: 6268 d9bd 336c e6bc bba9 193d 07db 4a3c
00000230: 2950 13bd 8a7e 76bd faef ecbd 970d 873d
00000240: e6e8 533d c501 6c3d ee16 f1bd 8785 9f3d
00000250: 3233 2abd c0e9 c53d c08b 2dbd afce d93d
00000260: c3b1 203d 04bc 8fbd c6c9 423d 1a6d 88bd
00000270: 8646 313d a142 12be f34f 7e3d b643 953d
00000280: 3ea7 eb3d e6a9 4abe 587d 8e3d 9a7b 8dbd
00000290: a8cd 7bbd f720 f63d 5cbb e1bd 6293 f83d
000002a0: b6f1 a1bd a839 e13d 1636 47bd 8be0 073c
000002b0: 0979 1fbc b496 17bd 4165 d33c 3a9f 66bd
000002c0: cde4 b0bd 301a 643d 1e1b 82bc 99e0 623d
000002d0: a942 9b3d 6bb3 43bd bc6a e23d dbcb 7e3d
000002e0: ac16 4fbd f336 97bd 5d5b 373d 4b21 00bc
000002f0: fc76 393d c2b4 843d f141 933d 924b 99bd
00000300: 6c00 18bc a01f b03c 7669 df3d 7780 8bbd
00000310: 1111 86bd bd63 cd3d e95f c93d 7e36 be3d
00000320: 9514 3fbd a3db 573d 0f0d ffbc 53c1 30be
00000330: 218b 57bd 08c2 58bd d647 13bc da0b b6bd
00000340: c335 2ebe 85d8 7c3d 7a7d 2b3d 8a8b 06be
00000350: df07 473d af7f 8ebd 2c75 b5bd e119 c73d
00000360: d804 863d fadc 52bd a4f2 89bd f956 8e3d
00000370: 4f2c 973d eed6 99bd 959c 03be 6431 6d3c
00000380: 7f1d 71bd 0d33 debd b95a 6bbd ba64 b33d
00000390: 5fff 4cbd 5ab2 a2bd 5c1d dfbc 27cd cebd
000003a0: 3d61 323d 70a2 d73d 96db b83d f02e 303d
000003b0: 184c 413d 3676 873d 8b01 5dbc e833 3bbd
000003c0: 4e9f a73d ebfe d83c cb3c be3d d0d0 bc3d
000003d0: d4ca 32bd 0a2e b2bd 1d3c 013d ac36 abbc
000003e0: 0495 2e3d db18 27bd 013e dfbd d9e6 d43d
000003f0: 20ca ca3d 1e3b eb3d 507b 133d a31a 103a

hidden2.bias f4 [34]
0.057645123 -0.010439865 -0.070254646 0.077525735 0.0053490615 0.010000698 -0.060298145 0.0033346105
-0.040528953 0.016992096 0.050108522 -0.0178435 0.011252963 -0.024998557 0.053322904 -0.05218088
-0.022827398 0.051065147 -0.015514925 0.033345632 -0.08916233 0.042169005 0.017598223 -0.047535744
0.0014952174 -0.039226625 -0.09642361 0.05874137 0.0061385375 -0.07163607 -0.053468682 0.0452072
-0.08929627 0.0500165
00000000: 4b1d 6c3d f80b 2bbc abe1 8fbd d0c5 9e3d
00000010: 2e47 af3b f8d9 233c 30fb 76bd 7b89 5a3b
00000020: b001 26bd 0233 8b3c 983e 4d3d 882c 92bc
00000030: 595e 383c c6c9 ccbc 1e69 5a3d 9ebb 55bd
00000040: 8600 bbbc b029 513d 5032 7ebc 6e95 083d
00000050: bd9a b6bd 68b9 2c3d 262a 903c d7b4 42bd
00000060: 2cfb c33a 19ac 20bd be79 c5bd ca9a 703d
00000070: c925 c93b efb5 92bd fa01 5bbd 2f2b 393d
00000080: f6e0 b6bd 1ade 4c3d
