Model/output_dir/1DCNN_0728_2e-5.pt (torch_old, 847600 bytes, 6 tensors)

conv.weight f4 [32, 1, 1, 71]
00000000: 1043 1abd 83e3 a8bd 83d7 b2bc 2651 c53d
00000010: 30df d83d 5595 4a3c 05ac bbbb 2750 ce3b
00000020: 597f 6abb 6cb1 943c 157a c83d 37ce 80bd
00000030: 7755 c1bd bd3c 05bd 0a8c 18bd 49f9 bebd
00000040: 2a8a 6a3d 8c7a 513d e014 003e 6407 033e
00000050: 3a68 973d b71c ccbd 2506 dc3d 0d8d 7b3d
00000060: 1b83 d1bd 5d0b de3d 3589 9c3d 8078 e73d
00000070: 6462 023e a7f9 9c3d 2b49 babd 312f df3d
00000080: a037 b7bd 7031 abbd 6782 9f3d ca53 ad3d
00000090: 3440 f03d da9d 853d 8e4b 0b3e 5dab 70bd
000000a0: eb77 a0bd b319 e13d 57d7 333d 53e0 67bd
000000b0: 4ad2 a5bc 3fa2 173d cf7c d63d a2d1 e6bc
000000c0: 7037 d6bb d167 a6bc 9924 ddbd d437 47bd
000000d0: 3f30 ab3d 0332 b43d 819d a6bc b514 32bd
000000e0: 1395 2aba ccf2 3f3c 2c90 ee3d ef38 aebd
000000f0: 0989 c43d 8226 093e f559 9fbd 74cd a2bd
00000100: 6091 adbc b9a6 cd3d dc4c dfbd 6021 cbbd
00000110: 215a 9fbc c0ef c1bb 890e adbd 4511 95bd
00000120: 9ecb ca3d dce5 d03d 69d4 d33c 9ec2 d53d
00000130: 7397 58bd ddc3 35bc 067b 2f3b 1648 b03d
00000140: 59cf fe3c 43a9 c8bd 325d d13d 5fea c93a
00000150: d68b 913d 7210 c23d cb57 acbd db12 033e
00000160: 19d6 c1bd dce5 603d a9a7 f83d 3c12 883d
00000170: fd38 713d 03e6 6a3d 0306 e6bc 6339 b0bd
00000180: db5d 853d e153 bf3d 8def 243d 5537 dfbd
00000190: a29d b6bd 9d40 af3d 287a 8fbd 295e b73d
000001a0: 10e6 9ebd b758 bc3c 36cf 58bd 63c4 36bc
000001b0: b3b2 d1bd 4e0b c0bd 6dc0 cfbd a2c8 f13c
000001c0: e281 6c3d 4c74 373c 9aa2 003e cd4c e83d
000001d0: 4c28 033e aba4 a63d cc83 ae3c 912d 0c3e
000001e0: 73fc 883d acf4 083e 69ff d1bd 4a61 e4bd
000001f0: 6b5c 063e eb4b e0bd cb78 d5bd 9ab3 4c3d
00000200: f4ac ee3c a321 56bd 8a7d 9fbc 6103 2d3b
00000210: 50e6 ee3d 0186 4c3a 527a e0bc 7ec9 5f3d
00000220: 61f3 c2bb 7390 d9bd 7465 b73d 747c 3a3d
00000230: 734e ad3d be82 833c a3d9 b83d 159b 5b3d
00000240: 3397 f63c 9ce9 acbd e385 adbd 81b1 113d
00000250: 98a4 25bd 4c6c 103e beea aebd 042d 9abd
00000260: bac5 233d 6597 9cbc 4687 fd3d 5b8a 403d
00000270: 4f45 b13d 087b 913d fdee 7fbd 9c53 0a3e
00000280: 113f a9bd d813 063e b020 b4bd 7356 b23c
00000290: 435d 94bc b4d2 efba 1817 3fbd adae 703d
000002a0: ad40 393d d9ab 5cbc 18c0 033e f590 f73d
000002b0: b82a f03d 002e bfbd 19b4 abbd 7316 d7bd
000002c0: 7728 023e 7287 183c 88aa a53d f2ec c3bc
000002d0: 4f5e e8bc cd57 6ebc 840d 6dbd de49 b0bc
000002e0: ba88 d13b 5f19 85bd 3f43 eabb 44e1 8f3d
000002f0: e4e3 e43d c898 91bd 26e5 f43b 1f4d 81bd
00000300: 5295 0f3e 5b91 70bd 1ef6 383c a668 50bd
00000310: c003 b0bd 3276 233d 10d7 003d a6b4 c1bd
00000320: 6836 b9bd 56b9 9cbd 56d3 0b3e 2787 0f3e
00000330: 8e91 9a3d c640 af3b 2359 1a3d f371 cc3c
00000340: 1c3e 56bd 1bc7 323d cecd c0bd c6dc 863d
00000350: 7a75 8a3d 783c b5bd 1cf2 f03c 26a4 023e
00000360: 062d 24bd d1e7 de3d dded 9cbd fba2 8b3c
00000370: 0b93 f43d 92be a4bd 30ad 70bc eb64 3fbd
00000380: 8a8b a03d 0cf4 e63d f190 d8bd 67a6 bc3d
00000390: 9f29 d43d 82a7 fbbd af0b b23d 5cb6 c83d
000003a0: c098 6abd 0589 aa3d 216c 56bd ad66 82bd
000003b0: 252b 853d 2015 043e a199 bcbd 7099 adbc
000003c0: ca1a 18bd a5c7 2c3d b597 39bd 8e15 6c3d
000003d0: 6427 073e e53e ac3c 3bb9 8c3d 0060 82bd
000003e0: cb1b a43d 481f d8bb 08aa b2bd 52ca c0bd
000003f0: e3f0 a43d e1ff 9cbd 4ef8 81bc ec8e 003e
-0.037661612 -0.082465194 -0.02183128 0.096346185 0.10589445 0.012364705 -0.0057272934 0.006296176
-0.0035781472 0.018151008 0.0978891 -0.06289332 -0.09440129 -0.032528628 -0.037242927 -0.09324891
0.05726067 0.05114226 0.12507963 0.12795788 0.073929265 -0.099664144 0.107433595 0.061413813
-0.102300845 0.10842011 0.07643358 0.113022804 0.12732846 0.07664805 -0.09095987 0.10897673
-0.089461565 -0.08359039 0.07788544 0.08463247 0.11730996 0.065242484 0.1360304 -0.058757175
-0.078353725 0.1099123 0.043906536 -0.056610417 -0.020241875 0.037019964 0.10473024 -0.028176133
-0.0065373704 -0.020313175 -0.10797996 -0.048637226 0.083588116 0.087986015 -0.020338776 -0.04347678
-0.0006507199 0.011715602 0.11648592 -0.08506953 0.0959645 0.13393596 -0.0778083 -0.07949343
-0.021187484 0.100415654 -0.10903332 -0.09918475 -0.019452156 -0.005918473 -0.08450038 -0.072786845
0.09902118 0.10200092 0.025858121 0.10437511 -0.05287881 -0.011094061 0.0026776209 0.08607499
0.03110473 -0.09797909 0.10222854 0.0015404931 0.0710675 0.09475793 -0.08415183 0.12800162
-0.09464664 0.05490671 0.12141354 0.06644103 0.05889224 0.057348263 -0.028079038 -0.08604696
0.06512042 0.093421705 0.040267516 -0.108992256 -0.08916785 0.08557246 -0.07005721 0.089535065
-0.07758725 0.022991521 -0.052931987 -0.011155221 -0.10239162 -0.09377156 -0.10144124 0.029514614
0.057741053 0.011197161 0.12562028 0.113427736 0.12808341 0.08136877 0.02130308 0.13689257
0.06688776 0.13374585 -0.10253794 -0.11151369 0.13121192 -0.1095198 -0.1042343 0.04997597
0.029135205 -0.052278172 -0.019469041 0.002639972 0.116650224 0.00078019506 -0.027402077 0.054635517
-0.005949423 -0.106232546 0.089548975 0.045528844 0.084622286 0.016053554 0.09025886 0.053614695
0.030101394 -0.08442995 -0.084728025 0.03556967 -0.040440172 0.14103812 -0.08540867 -0.07528117
0.03998349 -0.01911516 0.12379317 0.047006946 0.08655798 0.071035445 -0.062483776 0.13508457
-0.08263982 0.13093507 -0.08795297 0.021769738 -0.018110877 -0.0018297047 -0.046652883 0.058760334
0.045227695 -0.013468706 0.12866247 0.12088195 0.11726898 -0.09334946 -0.0838396 -0.10502329
0.12710749 0.009309636 0.08089167 -0.023916695 -0.028365282 -0.0145473005 -0.057874218 -0.021519598
0.006394473 -0.0649898 -0.0071491296 0.07025388 0.11176279 -0.07109219 0.0074736057 -0.06313538
0.14021805 -0.05873237 0.011289148 -0.05088105 -0.08594465 0.03990764 0.0314551 -0.09458284
-0.0904358 -0.076525375 0.13654837 0.140164 0.075472936 0.005348298 0.037682664 0.024956679
-0.052305326 0.043646913 -0.09414254 0.06585078 0.06760688 -0.08849424 0.029412322 0.1275793
-0.040082 0.10884059 -0.07662556 0.017045489 0.11942109 -0.08044161 -0.014689729 -0.046727102
0.07839115 0.11277017 -0.105745204 0.09211426 0.10359501 -0.12287809 0.08693635 0.09800407
-0.05727458 0.08326916 -0.052349214 -0.0636724 0.0650237 0.12898684 -0.0920899 -0.021191329
-0.037134923 0.042182583 -0.045310695 0.057637744 0.1319862 0.021026084 0.068712674 -0.06365967
0.080131136 -0.006595526 -0.08723837 -0.094135895 0.08053758 -0.076659925 -0.015865471 0.1255452

conv.bias f4 [32]
00000000: 9453 883d 505a 8dbd 0c57 f83c 8463 dc3d
00000010: a926 04bd f427 47bc 4261 b73d 358e 733d
00000020: d2ec f73b 18f3 6f3d fae5 3a3d 70e8 7b3d
00000030: 0c0a da3d a483 e23d b28e 063e 9dad 483d
00000040: cd22 503d 0e23 71bd 0768 19bd 749f 863d
00000050: efc7 da3c 425e adbd ea1b d4bb 1402 ed3d
00000060: f3f4 d53c f70a 13bd b496 853d f73f ed3d
00000070: 03ef b8ba c966 a7bd c2d7 753d 5ac7 aebd
0.06656566 -0.06901991 0.030314945 0.107611686 -0.03226343 -0.012155522 0.08954097 0.05946179
0.007566073 0.05858144 0.04562948 0.061500967 0.106464475 0.11060265 0.13140371 0.048993696
0.05081444 -0.05887132 -0.037452724 0.06573382 0.026706664 -0.08465244 -0.006473054 0.11572662
0.026117777 -0.03589913 0.06522885 0.11584466 -0.0014109317 -0.081739016 0.060020216 -0.08534117

hidden1.weight f4 [128, 1600]
00000000: a203 5b3c 731b 9bbb b402 263d 9bb7 9b3b
00000010: d94d 183d b527 84bc 1e13 87bc b24f 6bbc
00000020: 852e a6bc a76d b83c 6dd6 d73b 1986 1e3c
00000030: 8295 883c 3b56 483c d06f ad3c 26b4 c2bb
00000040: d177 61bc e788 053d 8211 803b e262 78bc
00000050: b581 09bb 3131 963c d93f 283c 086b 03bc
00000060: e6b7 1abc 9534 0b3d cb75 babc cea1 2d3c
00000070: 6fe3 023c 6874 e73b 9189 2d3c c2a2 453c
00000080: d97b 393c f464 91bc 2ea0 d23b 6d9a 2abc
00000090: ce7d 583c 8222 a43b 3129 c4bc ad4a 4fbc
000000a0: cea6 2cbc 00dc 713c 2e1f 47bc 51bf 4bbc
000000b0: b0dc 943b 3bde ce3b ab60 ff3c fd99 68bc
000000c0: 085e 683c 6f10 b03c 44ea c53a b487 efbb
000000d0: cffc 9d3c 68ab 70bc aa55 093c f5ed 913c
000000e0: fd32 c4bb c1e3 39bc 84d8 fc3c 19f6 18bc
000000f0: 9146 3e3c 54f7 153c b425 60bc ebb7 4b3c
00000100: c573 0ebc bfc9 3b3b 5647 883c 5392 443b
00000110: e50d 51bc d800 45bc 0cb8 b73c 33bf 453c
00000120: 86ef b7bb be31 9dba 1248 1fbc cdd6 a73b
00000130: a750 d63c 9eb4 41bb 917b e93c f5c0 ce3c
00000140: 4698 e9ba a960 bd3a 7440 093b db1e 24bc
00000150: 61b4 a939 eafd 8e3c 8bc3 9e3c b7bd 0a3d
00000160: 18bc 8d3c 0e37 6339 fd05 51ba 294e 8c3c
00000170: 49ac be3c 88da ad3b 622e af3c 3efb bfbb
00000180: aa35 c13c 1a5b ec3b 727a a8bc 005d 00bc
00000190: 56a4 91bb 8d38 1bbc 938f 2cbc 8c65 843b
000001a0: d7a1 673b 7ad9 453b d1ed c83b edbf 573c
000001b0: 0352 c8bc 8824 2abb 5f6d 153d 0f8d 843c
000001c0: 4efa 14bb 7f5a 5c3c b2ee 6b3c 9755 123c
000001d0: 5a51 0dbc 5c2d a23c 145d 363c d022 32bc
000001e0: ef18 88bb 72cb a53c ee19 4ebc cc2c a13c
000001f0: d6c1 223a 2e4c dd3c 8986 ff3b abb5 453c
00000200: fdb8 99bc 4dc3 2cbc 0f28 9b3b ce51 05bc
00000210: 8ca4 03bd 8741 91bb 19fc 5b37 3b51 093c
00000220: 9232 383c f564 deba 6ab8 07bd 115a 7abc
00000230: 0c3f 49bc 9585 833c db64 913c c144 76bc
00000240: a572 bb3c ae59 8e3c 8c3a 7f3c 5f0c 113d
00000250: e387 a5bc 2b06 5f3c 2be0 1e3c ba1b a53c
00000260: 019c 7d3c cac7 5dbc 7b01 a4bc 470a a83b
00000270: e46a 5e3a 40e4 65bc c17d 7dbc 2edc 9b3c
00000280: 0a21 b53c 0dd6 273b 0ea7 c4bc ac5a 133c
00000290: b347 ba3c 5fa4 f03c eb57 88bb 7178 163c
000002a0: 9681 993c e83d fd3b 7e63 263c aa12 b23b
000002b0: 93bb c8bc 0c78 6a3c 052b 2b3c 7bad 89bc
000002c0: 70b9 c2bc a504 63bc b8c0 54bc 4d7d 2fbb
000002d0: 6b3b 85bc 1473 f13b 3f31 98bc 879e 063d
000002e0: 72a6 343b e999 043d 8980 99bc bdc9 333c
000002f0: 4906 203b cf04 193c 324b 763b b852 4dbb
00000300: b551 9c3c 214f 963c 5cc6 f93b c58c 75bc
00000310: 8b33 623c 718a f13b be23 733c 0787 9f3c
00000320: 46e6 b93c d96b 2bbb acab b5bb 019d 663c
00000330: e323 8f3c 9813 983c 05e3 b73c a0e9 faba
00000340: c07a 63bc 974b 5dbb 41d4 cbbb bcf6 82bb
00000350: ff29 85bb a99d a33b a2e1 193c 2d44 e33c
00000360: 8c05 8f3c 2b24 053c 5829 ad3c 64cd e9bc
00000370: ee63 0e3c ac2c c7bc de5f cf3c 0289 19bc
00000380: 476f 5c3c 675c 3c3c 784a a63c 8b73 0c37
00000390: 9bb1 98bc 9bbb 4cbd 8d20 203c 3a83 f43b
000003a0: 3df2 66bc b1c7 a9bc f60f 813c 83cb c3bc
000003b0: 7fec 9b3c 7c86 c8bc 3428 7dbc e460 9abb
000003c0: 7ae8 6c3c 3fb5 9dbc b87c cb3c cec4 2ebc
000003d0: cdfb fa3c 41f5 6f3c c81a d53c 6474 7bbc
000003e0: 3fad 58bc bf69 32ba 2a11 053d 86d5 3cbc
000003f0: 93a9 8e3a 5354 c83c 16d8 f13c 310e 1d3d
0.013367565 -0.004733497 0.04052992 0.004752112 0.037183616 -0.016132215 -0.016488608 -0.014362263
-0.020285854 0.022513224 0.006586841 0.009675526 0.016672853 0.01222759 0.02117148 -0.0059418855
-0.013761477 0.032601263 0.003908337 -0.015160294 -0.0020981852 0.018334003 0.010269129 -0.008021124
-0.009443259 0.033985693 -0.022761246 0.010597659 0.007988795 0.0070634373 0.01059188 0.01206273
0.0113210315 -0.017748334 0.0064277863 -0.010412795 0.013213588 0.0050089965 -0.023945423 -0.012652081
-0.010537816 0.014761925 -0.01215343 -0.01243575 0.0045429096 0.006313113 0.031174025 -0.01419687
0.014182575 0.021492211 0.0015099724 -0.0073098782 0.019285588 -0.014689304 0.00838224 0.017813662
-0.0059875236 -0.011345805 0.030864961 -0.009336018 0.011613504 0.009153206 -0.013680864 0.012433986
-0.008694594 0.0028654186 0.016635578 0.0029994443 -0.01275966 -0.012024127 0.022426628 0.012069511
-0.00561327 -0.0011992974 -0.009721773 0.005122042 0.026161505 -0.002955712 0.028501304 0.025238493
-0.001782187 0.0014448363 0.0020942958 -0.010017122 0.00032368585 0.01745506 0.019380352 0.033872332
0.017301604 0.00021668916 -0.00079736096 0.017127113 0.023275511 0.005305592 0.021384422 -0.005858808
0.02358516 0.0072130086 -0.020566199 -0.007834673 -0.004444639 -0.009473932 -0.010532278 0.0040404256
0.0035344267 0.003018944 0.0061318655 0.013168317 -0.024453169 -0.0025961716 0.036481258 0.016180543
-0.00227322 0.01344931 0.014400171 0.008931539 -0.008625353 0.01979702 0.01113059 -0.010872558
-0.004153363 0.020238612 -0.012579424 0.019674681 0.00062086934 0.027013864 0.0077980203 0.012067239
-0.018764967 -0.01054461 0.004735 -0.00813718 -0.032139346 -0.0044328603 1.3112113e-05 0.008381183
0.011242526 -0.0016967343 -0.033134855 -0.015280263 -0.012283098 0.016054908 0.017748287 -0.015031041
0.022881815 0.017376747 0.0155779235 0.03541219 -0.020206397 0.01361231 0.0096970005 0.020154823
0.015479089 -0.013536403 -0.020020237 0.0051281783 0.0008484556 -0.01403147 -0.015471877 0.019025888
0.02211048 0.0025609762 -0.02400544 0.008993786 0.022739267 0.029375253 -0.0041608713 0.009183989
0.01873855 0.007728327 0.010155557 0.005434354 -0.024503505 0.014310848 0.010447268 -0.016806355
-0.023770064 -0.013856088 -0.012985401 -0.0026777566 -0.016263684 0.0073684547 -0.01857817 0.032866027
0.002756503 0.032373343 -0.018738048 0.010973391 0.0024417809 0.009339525 0.003758144 -0.0031329822
0.01908193 0.018348278 0.0076225232 -0.014987175 0.013806234 0.00737124 0.014840065 0.019473566
0.02269281 -0.0026156812 -0.0055441465 0.014075519 0.017473167 0.01856403 0.022447119 -0.0019143112
-0.013884246 -0.003376698 -0.006220371 -0.003996698 -0.004063844 0.00499316 0.009392174 0.02774247
0.0174587 0.008126299 0.021137878 -0.02854032 0.008690817 -0.024313293 0.025314268 -0.009371044
0.013454265 0.01149664 0.020299181 8.371552e-06 -0.018639376 -0.049983602 0.009773386 0.0074619325
-0.01409584 -0.020725103 0.015754681 -0.023900753 0.019033669 -0.02447819 -0.01545148 -0.0047112573
0.014459724 -0.019251464 0.024839744 -0.010667039 0.030637646 0.014645875 0.026013747 -0.015347574
-0.013224899 -0.00068059185 0.032487072 -0.011525517 0.0010884277 0.024454271 0.029521983 0.038343612

hidden1.bias f4 [128]
00000000: 3cfc be3c 0893 92bc 5ac9 953c b493 733b
00000010: c878 e03c 4ac0 1dbc e144 353c f9c8 c13c
00000020: bf46 a0bc 8ed9 81bb 453a 95bb e66e 8cbc
00000030: ebc1 b23c 5076 5bbc 9b99 62bc cb23 79bc
00000040: 92c4 0639 1555 3f3a 19f1 4f3b bcdd 863b
00000050: be95 9fbc 7683 a6ba 7d94 c03b 824b 1e3c
00000060: eca3 653c 1b7f d03a 111c ce3c 2807 8b3a
00000070: e497 56bc d4ac 3e3c 6859 3a3c 436a 833c
00000080: de81 bebb 0a81 e63b b249 fbbb 6ab4 e33b
00000090: 1fab 3b3c 8d71 1dbc cdd8 b53c 554d 6fbc
000000a0: 47be c43c 7cdd 873c 4e8b 343c f0ad 68bc
000000b0: f660 7b3c f8b4 f0bb 7fde 1d3c 70f6 b03c
000000c0: af96 a3bc aecc 3e3c 7cef 123c 6a61 d53b
000000d0: f7e0 b9bc 8846 443c be16 cf3b 8c91 263c
000000e0: 0dbc 38bc 12ae f53b a1cd a83c a737 27bc
000000f0: 7063 9939 8073 423c ba70 02bc 9dfd 243b
00000100: 06a2 a4bb 919a 483b 8310 18bc 9289 c73c
00000110: 9ab2 083c a5a0 9fbc a35a 3eb9 49c2 3a3c
00000120: d83c baba 985d 0ebb 7829 b73c fea0 e7bb
00000130: 0622 31bc b516 f4bb a023 d23c ab22 84bb
00000140: 9f48 9abc 31e8 5cbc bd46 fb3b 608c ca3c
00000150: debf 2f3c 95f1 c23c 56ce 2b3c f47d 5cbc
00000160: 9a30 8e3c b7ca 2fbb e40f e03b 35df d0bc
00000170: d0a1 5cbb 9efb da3b 590a 13bb 56a4 f13c
00000180: 1c96 c7bb a118 36bc 50c2 a33a 8553 9dbc
00000190: d37a 233b 3dbb c03c 1b9c a13b 9e7b 033b
000001a0: 615d 74bc c3f5 85bc 4303 2fbb b2e5 fcbb
000001b0: fdf0 6abc 14ec ab3c cb31 8fbc 65f7 753c
000001c0: ec06 bd3b be19 603c e054 b23c b944 9d3c
000001d0: 2c6d c4bb 75f4 933c b047 853b 1d04 62bc
000001e0: 5e01 5f3c 4a27 b9bc 9ae9 b3bc 16c4 50bc
000001f0: 3272 623c d6ad ba3c 0289 233b 060b ccb9
0.023313634 -0.017892376 0.018284488 0.0037166895 0.027401343 -0.009628365 0.011063785 0.023655402
-0.019564984 -0.003962702 -0.0045540654 -0.017142724 0.021820983 -0.013394907 -0.013830568 -0.015206288
0.00012852464 0.000729875 0.0031729399 0.0041157883 -0.019480582 -0.0012703973 0.005877076 0.009661557
0.014016133 0.0015907021 0.025159867 0.0010606991 -0.013097737 0.011637885 0.011373855 0.01604188
-0.005813821 0.0070344256 -0.0076686973 0.0069489973 0.011454373 -0.009609592 0.022198105 -0.01460584
0.024016513 0.016585104 0.011019541 -0.014201626 0.0153429415 -0.007345792 0.009635567 0.021601886
-0.019969312 0.011645479 0.00896823 0.006511857 -0.02269028 0.011979707 0.0063198498 0.010166537
-0.011275304 0.0074975574 0.020605864 -0.01020614 0.0002925652 0.011868358 -0.007961446 0.002517558
-0.0050241975 0.0030609707 -0.00928128 0.02435759 0.008343363 -0.019485781 -0.00018153577 0.01139886
-0.0014208807 -0.0021723267 0.022358641 -0.0070687523 -0.0108113345 -0.007448996 0.025651753 -0.004032453
-0.018833457 -0.013483093 0.007668345 0.02472514 0.010726897 0.023796836 0.010486206 -0.013457764
0.01735716 -0.0026823708 0.006837832 -0.025497058 -0.0033665784 0.006682827 -0.0022436588 0.029497307
-0.0060908925 -0.01111427 0.0012493823 -0.019204864 0.0024945035 0.023526782 0.0049319393 0.0020062695
-0.014914841 -0.01635254 -0.0026704825 -0.0077178115 -0.014339683 0.020986594 -0.017479798 0.015012597
0.0057686474 0.013678012 0.021768987 0.019197809 -0.0059944596 0.018060902 0.0040673837 -0.013794926
0.013611166 -0.022601742 -0.021961976 -0.012742063 0.013821172 0.02278797 0.002495349 -0.00038918125

hidden2.weight f4 [34, 128]
00000000: ce4c 22bd 2c36 d33c f020 883d 945c 92bc
00000010: bbbb f6bb 51e3 a23d fbb5 8e3c 9d7c 3fbd
00000020: c3c3 4e3d c650 87bd d47d 893d cf45 93bc
00000030: c031 203c 7462 cabc ce80 223d fea4 babc
00000040: fc2c 5fbb 8744 543d ac86 79bd 8a52 253d
00000050: 59f5 6fbd 69f2 c3bb 514c 37bd 27df 433d
00000060: ffe1 9f3c 7623 b8ba cf3a b1bd 6f87 a73c
00000070: bf55 963d 63ae 86bc f30a eabc a011 babb
00000080: cb4e 44bd 5007 2c3d 6eed 45bc 9cc5 b7bd
00000090: 8ab9 af3c 08e9 2abd 5a2b eb3b 9269 93bd
000000a0: e97e 943d f056 1cbd 3ad9 8cbd 2f8d 9f3d
000000b0: 51c9 733d 025e 9a3d f50c 21bd 64ba b6bc
000000c0: 1db1 96bd 7e64 a1bd 1d18 8bbb d6ba 64bd
000000d0: 3c02 863c 0d48 a53d 96c3 8f3d 7475 843d
000000e0: d8d4 e2bc 3625 dd3b 580a d63c 5b68 823d
000000f0: 8973 34bc fc12 a53d 76dd 463d 9fed 8cbd
00000100: f6b4 a1bd 2c1b 6c3d 0b00 90bd 8334 c6bc
00000110: fc56 8f3d f8a6 37bc 1220 9e3d 09c1 9bbd
00000120: 6c8e 86bd f26b 023d 050f 88bc b23b 683d
00000130: 91bd aabc 7f6e 973d 85e7 5bbd 6d70 a1bd
00000140: c133 4abd 218f 99bd 33e3 e4bb d677 53bc
00000150: c5e5 39bd 32be a8bd 24b4 a1bc b48e 41bd
00000160: 970e aa3c b964 dbbc 35e7 9e3d 37be 0b3c
00000170: 712f 893c 408a ba3c bfaa cfbc 3428 26bd
00000180: 1b26 d43c 4c28 2abd e81e 953d 9f79 a8bc
00000190: 2f92 903d 6dd8 b33d 0b0b a03c 1c0b 5dbd
000001a0: 14cd bebc 4882 12bd 6d60 77bd 1439 8fbd
000001b0: 6a20 183d 87ad 713d ec74 7dbd b95a 903d
000001c0: 4ce3 34bd a000 acbd 2d4e 84bc 1526 96bc
000001d0: 023c 473d d8fb 8d3d 9727 b1bd 8c93 aebd
000001e0: d31d ad3d 73f3 9b3d d97a 83bd eaa2 4f3c
000001f0: ec1b 20bd 364a 663b a2b6 17bc 0a0e 773c
00000200: 4e17 d4bc e62a 333c 5631 3e3d f592 8ebc
00000210: edbf 0a3d 39f6 ee3b acb9 b23d 0453 17bd
00000220: 114a c0bd dc9c 723d ece1 41bd a690 403c
00000230: 51e3 c3bd ca99 75bc 77e4 86bd b696 8bbd
00000240: af2f 5e3d 6796 a83d 46e1 f73b 84a3 83bd
00000250: 3c24 58bc ba39 ccbd 7d2c 2dbd 3380 bfbd
00000260: 67e0 31bd 4476 46bc f7cc a839 cc5f 323d
00000270: 5a73 82bd 3fbc 583d 571d 563d f7e9 95bd
00000280: 92ce 093d 2aab 753d e8ff 9a3c 0a2d b0bd
00000290: 9d40 fd3c 4bc6 a8bd 96c1 2cbb 925f 65bd
000002a0: 18a0 ffbc ecce a637 fdf4 b03d 9031 62bc
000002b0: b3bf a83d a56f b4bd e87a 923d cea4 b0bd
000002c0: da31 a6bc c442 cd3c a3a5 70bd 75ee febb
000002d0: ba21 38bd d175 28bc 2e85 53bc 6d43 6ebd
000002e0: bb34 a43d e2be b73d e912 84bd 9a0f d2bd
000002f0: 1ded 9f3d d1ad 4bbd 3da5 aebd f3a6 d63c
00000300: 48f3 9a3d 019f 723d bd69 bf3d 4dce 823b
00000310: 9dae 06bd ba4c 963d 005f ca3d 6772 90bd
00000320: 565f 87bd e07c 6bbc 2189 6fbd 735c 273c
00000330: 9126 3abd 242c c9bd 1733 acbb 9615 8d3c
00000340: fcb1 6abc c44e a1bd 752a cbbd 4167 4f3c
00000350: 6307 6a3d 1db8 283d 8fac a93c cbd1 163c
00000360: 159e 3bbd f94a 40bd 303c a5bc 22fc 52bc
00000370: f5b8 953d 475c 8b3d 34e5 bcbd 47d2 a43d
00000380: 79e3 01b8 fad4 a43d ceb0 91bd 6dcc b23d
00000390: e373 f1bc 008f d53a 2426 c9bc 24be 5f3d
000003a0: c247 d9bd 38d1 423d f367 4bbd ca80 a2bc
000003b0: 989e 333d 17a5 21bd c14d 03bd 086c d73d
000003c0: dd93 ac3d f062 e6bc cb4b 2f3d f0e3 943d
000003d0: 18f3 05bc 74a2 bd3d 3b97 613d 4968 8c3d
000003e0: 5df5 1aba 7b06 3ebd dec1 ccbd 5b33 5d3d
000003f0: 4f00 2abd abe9 463c f895 c83c 2555 3abd
-0.039624028 0.025782667 0.06646907 -0.01786641 -0.0075297034 0.079535134 0.01742076 -0.0467497
0.05047966 -0.06607203 0.06713453 -0.017977623 0.009777486 -0.02470515 0.03967362 -0.022783753
-0.0034053912 0.051823165 -0.06091945 0.04036192 -0.05858359 -0.0059798253 -0.044750515 0.047820237
0.019516943 -0.0014048654 -0.08653795 0.020450322 0.073405735 -0.016440576 -0.028569674 -0.0056783706
-0.047926705 0.04199916 -0.012080533 -0.08973238 0.021450777 -0.041726142 0.007176799 -0.0719787
0.07250769 -0.038168848 -0.0687737 0.077906005 0.059518162 0.07537462 -0.039318997 -0.022305675
-0.073580004 -0.078804955 -0.004244818 -0.055842243 0.016358487 0.08070383 0.07019727 0.06467715
-0.027689382 0.0067488207 0.02612798 0.063675605 -0.011013874 0.080602616 0.048551045 -0.0688126
-0.07895844 0.0576431 -0.07031258 -0.024194961 0.06999013 -0.011209242 0.07720961 -0.07605178
-0.065701336 0.031841226 -0.016608724 0.056697555 -0.020842345 0.07394122 -0.05368759 -0.07882772
-0.049365763 -0.07498003 -0.006985092 -0.012906989 -0.04538514 -0.08239402 -0.019739218 -0.047255233
0.02075891 -0.026781427 0.07758943 0.0085292375 0.016746255 0.022771 -0.025349973 -0.040565684
0.025897076 -0.041542336 0.072812855 -0.020565806 0.07059132 0.08781514 0.019536516 -0.053965673
-0.023291148 -0.035768777 -0.060394693 -0.06993309 0.037140287 0.05900338 -0.061879084 0.07048554
-0.04416208 -0.08398557 -0.016150558 -0.018328706 0.048641212 0.06932801 -0.08650129 -0.08524236
0.08452954 0.07614794 -0.06419916 0.012673119 -0.03908913 0.0035139448 -0.009259852 0.015079031
-0.025890019 0.010935521 0.04643377 -0.017404059 0.03387444 0.0072925356 0.0872682 -0.036944404
-0.09389127 0.059231624 -0.047334597 0.011753237 -0.095648415 -0.014990279 -0.06586545 -0.06815855
0.054244693 0.08231812 0.0075646965 -0.064276725 -0.013192233 -0.09971948 -0.042278755 -0.09350624
-0.043426897 -0.012113158 0.00032196168 0.04354839 -0.06369658 0.0529139 0.052274074 -0.07320016
0.033644266 0.059977688 0.018920854 -0.086023405 0.0309146 -0.082409464 -0.0026360503 -0.055999346
-0.031204268 1.9885098e-05 0.08640478 -0.013805762 0.08239689 -0.08810357 0.07152349 -0.08625184
-0.020287443 0.02505625 -0.058751713 -0.007779891 -0.04495404 -0.010281996 -0.0129101705 -0.05816977
0.0801787 0.08971955 -0.06448919 -0.10256882 0.07808898 -0.04972631 -0.085276105 0.026202654
0.075659335 0.05923367 0.0934634 0.003991878 -0.032881368 0.07338853 0.09881401 -0.070530705
-0.06609981 -0.014373034 -0.058480386 0.010214913 -0.045446936 -0.09822872 -0.005255114 0.017222207
-0.014324661 -0.078763515 -0.099202074 0.012658895 0.05713595 0.04119121 0.020712165 0.009205292
-0.045805056 -0.0469465 -0.020170301 -0.012877496 0.073106684 0.0680471 -0.092234045 0.0804792
-3.0967847e-05 0.080484346 -0.07113801 0.087303974 -0.029474204 0.0016293228 -0.02455432 0.05462469
-0.1060939 0.047562808 -0.04965968 -0.019836802 0.04385242 -0.039464083 -0.032056574 0.10518652
0.0842664 -0.028123349 0.04279689 0.07270038 -0.008175634 0.09259501 0.055075865 0.06855828
-0.0005911196 -0.0463929 -0.09997915 0.054004055 -0.0415042 0.012140672 0.024485573 -0.045491356

hidden2.bias f4 [34]
00000000: 6b69 e0bc c97a af3d 1011 8abb 6eff 98bd
00000010: bd69 89bd 8abd d83c 51b7 a13c 99aa a5bc
00000020: ee42 6b3d 336b 84bc d653 74bc 4f06 a0bd
00000030: 0699 1c3d 7014 8ebd e333 1a3d 61e7 5b3c
00000040: 4344 a2bd d036 8dbd 7a97 ba3d 33cd 30bd
00000050: 56bd 6dbc b27a 773d 46eb bb3c 6000 013d
00000060: 0040 1cbd 7a2a 09bd 2424 b5bd 4175 9a3d
00000070: a5ee b5ba 0b3a e83c 1249 2ebd 5de7 5bbd
00000080: 41c2 03bc e553 b7bd
-0.027394017 0.08568341 -0.00421346 -0.07470594 -0.06709621 0.026457567 0.019740732 -0.020222949
0.057436876 -0.016164398 -0.014912566 -0.07813703 0.038231872 -0.06937492 0.03764714 0.013421864
-0.07923176 -0.0689522 0.09110923 -0.043164443 -0.014510473 0.060419746 0.022939336 0.0314945
-0.038146973 -0.033487774 -0.08844784 0.07541896 -0.0013880326 0.02834799 -0.042550154 -0.053687442
-0.008041919 -0.089515485
